best_model.pth (torch, 599157 bytes, 72 tensors)

module_list.0.global_scale f4 [1, 6]
8.625642 7.9362407 10.060016 9.66476 11.214713 10.029208
00000000: a102 0a41 aff5 fd40 d3f5 2041 dba2 1a41
00000010: 776f 3341 a377 2041

module_list.0.global_offset f4 [1, 6]
-0.0061188675 -0.011411423 -0.04219998 -0.008516493 0.0121717015 -0.06972315
00000000: c880 c8bb faf6 3abc e3d9 2cbd c388 0bbc
00000010: d16b 473c 03cb 8ebd

module_list.0.w_perm f4 [6, 6]
-0.5496805 -0.30421987 -0.048012454 0.4770514 0.60748357 0.079888 0.3927809 -0.6601135
-0.34438157 0.22453478 -0.23536164 0.43077105 -0.3356416 0.24386662 0.39177793 0.13676243
-0.35379755 0.7283592 -0.58575755 -0.49837163 0.01714912 -0.39041477 -0.43851689 -0.25198993
-0.13318738 0.24364397 -0.28551605 0.6757661 -0.5042401 -0.36119443 -0.2647044 0.3232535
-0.8023669 -0.30695048 0.06197391 0.2891137
00000000: dcb7 0cbf b5c2 9bbe b5a8 44bd 1540 f43e
00000010: 0b84 1b3f 529c a33d 941a c93e 33fd 28bf
00000020: c852 b0be 72ec 653e a402 71be 068e dc3e
00000030: 37d9 abbe 2cb8 793e 1e97 c83e 730b 0c3e
00000040: f424 b5be c075 3a3f 35f4 15bf 912a ffbe
00000050: 507c 8c3c 72e4 c7be 4985 e0be d304 81be
00000060: 4662 08be ce7d 793e 292f 92be 02ff 2c3f
00000070: e115 01bf 7aee b8be 5687 87be 7c81 a53e
00000080: eb67 4dbf 9d28 9dbe 5bd8 7d3d b606 943e

module_list.0.subnet.0.weight f4 [128, 3]
-0.09815052 0.11856498 0.13781129 -0.17172837 -0.05109716 -0.52358645 0.56523 0.32839292
-0.21364295 0.069503695 -0.28803685 0.55025244 -0.45796078 -0.120519124 -0.20185995 0.15186985
0.37893593 0.10993193 0.11448075 -0.22807129 -0.29485753 0.061264902 -0.26813057 0.61998475
0.26007792 -0.331901 0.35026437 -0.36334518 0.2983671 -0.023013778 0.49121603 0.19370654
-0.5924434 0.117478415 -0.3585266 -0.598401 0.17883345 -0.086364195 -0.41172072 -0.35188493
0.11945565 0.20644237 0.2130346 -0.13824195 -0.345423 0.32351524 0.13071223 0.47167456
-0.18522096 0.20978288 0.14618379 -0.5041808 -0.40400308 -0.48420632 0.43632716 -0.11662093
0.3574411 -0.48330632 -0.38961157 0.41871655 0.23725939 -0.05593425 -0.0026885998 0.5181109
0.07624656 -0.12779105 0.061884016 -0.44143474 0.23228005 -0.09689262 -0.23665047 0.043573134
-0.35539496 0.02431506 0.10123944 0.49334037 0.2286732 -0.52482677 -0.084725045 0.39585063
0.058840044 -0.26140043 -0.122840494 0.17545159 -0.3681443 0.38644165 -0.29020777 0.38318166
-0.040214516 0.29199752 0.18919772 0.20215036 -0.50001585 0.25080264 -0.08338721 -0.2759841
-0.24335803 -0.3290959 0.23046036 -0.02405153 0.031346954 -0.2855017 0.1855601 -0.18852486
0.16462794 0.054230314 -0.058965195 -0.09192274 -0.16865289 0.14186707 0.08432799 0.14252089
0.43011972 -0.27576834 -0.20575377 0.16239749 -0.26405412 -0.28802168 0.22301948 0.086581916
-0.10526486 -0.22225542 0.6023733 -0.27888855 0.25615153 0.3799703 -0.10905503 0.40095335
-0.086247005 -0.26673967 0.45252654 0.2677045 -0.060389083 -0.14431185 -0.15874359 0.23085654
0.22195764 0.049358387 0.13154277 -0.41315335 -0.19422007 0.06886833 -0.48652628 0.3039581
-0.50779045 -0.20409296 -0.19952475 -0.0072354707 0.016604327 -0.008017741 0.15302101 -0.22652571
0.20766051 -0.05912095 0.17717113 0.6683728 -0.041288555 -0.23059513 0.084519945 0.2358892
0.33397278 0.21937393 -0.0816766 -0.07384592 0.08278346 0.18896788 -0.31725433 0.32826558
0.43490905 -0.43957594 0.35232964 -0.26592258 -0.31663427 -0.4512837 -0.16044354 -0.30667877
0.04084167 0.31720662 0.13487086 0.2604607 0.065702826 -0.31508303 0.039131522 -0.29418552
0.0076941573 -0.051932663 0.008408494 0.029043937 0.57871956 -0.18352015 -0.41219422 -0.5193164
-0.10554442 0.009122632 0.54751235 0.189663 -0.25640088 -0.32290566 -0.09920698 0.21401118
-0.24930336 -0.42551965 0.3850354 -0.50423 0.038335197 0.28594065 0.39172795 -0.20306017
-0.10462953 -0.2829919 -0.4906563 0.038995523 0.14509755 0.38987315 -0.38636163 0.0852888
-0.29999927 -0.120996214 0.2996678 -0.2831136 -0.023400731 -0.38382939 -0.054392315 0.13222875
0.5409689 -0.16785286 -0.003362177 0.4198366 -0.08988937 0.2354204 -0.17719719 0.44560534
0.2964541 0.48063025 0.11159556 -0.36078596 -0.20116821 -0.471502 -0.26667708 0.090995915
-0.087501906 0.0339963 0.016323281 -0.3357877 -0.35832423 -0.19346589 0.25726584 -0.42652434
-0.24508235 -0.03838071 0.047892056 0.28858498 -0.35701492 0.11378618 0.09254505 -0.3891141
00000000: 2403 c9bd 32d2 f23d 671e 0d3e 90d9 2fbe
00000010: 414b 51bd c309 06bf eab2 103f 1e23 a83e
00000020: 38c5 5abe f457 8e3d 9179 93be 58dd 0c3f
00000030: d679 eabe bbd2 f6bd 60b4 4ebe c583 1b3e
00000040: e403 c23e fe23 e13d e274 ea3d 858b 69be
00000050: 91f7 96be e8f0 7a3d 6948 89be 52b7 1e3f
00000060: ef28 853e eeee a9be da55 b33e 6108 babe
00000070: 93c3 983e 6487 bcbc ab80 fb3e 025b 463e
00000080: 5faa 17bf 8698 f03d cc90 b7be cf30 19bf
00000090: 1e20 373e b6df b0bd 0fcd d2be 432a b4be
000000a0: 2aa5 f43d a165 533e be25 5a3e 4c8f 0dbe
000000b0: 49db b0be caa3 a53e 6dd9 053e 547f f13e
000000c0: 90aa 3dbe 53d1 563e 34b1 153e fe11 01bf
000000d0: 7ed9 cebe e4e9 f7be 4666 df3e f4d6 eebd
000000e0: 8502 b73e ed73 f7be 2b7b c7be 0462 d63e
000000f0: 20f4 723e 501b 65bd 3833 30bb eaa2 043f
00000100: 2827 9c3d a8db 02be 187a 7d3d bc03 e2be
00000110: d2da 6d3e a36f c6bd 8054 72be be79 323d
00000120: 54f6 b5be 6030 c73c a056 cf3d 1c97 fc3e
00000130: 4f29 6a3e 0c5b 06bf 5384 adbd efac ca3e
00000140: 4202 713d 47d6 85be cc93 fbbd 95a9 333e
00000150: 697d bcbe aedb c53e 1d96 94be 6330 c43e
00000160: fab7 24bd b380 953e 0cbd 413e 8100 4f3e
00000170: 0a01 00bf 3469 803e eac6 aabd ca4d 8dbe
00000180: d932 79be 427f a8be cdfd 6b3e b707 c5bc
00000190: aa65 003d 472d 92be 7803 3e3e a90c 41be
000001a0: 3a94 283e 9b20 5e3d 7d85 71bd fd41 bcbd
000001b0: 58b3 2cbe 9a45 113e 27b4 ac3d fff0 113e
000001c0: a738 dc3e 8231 8dbe 1eb1 52be 874b 263e
000001d0: 1a32 87be 9477 93be 385f 643e dc51 b13d
000001e0: 1a95 d7bd ed96 63be 2335 1a3f 7bca 8ebe
000001f0: 4b26 833e 788b c23e 3e58 dfbd c249 cd3e
00000200: 45a2 b0bd 1a92 88be 8fb1 e73e 9010 893e
00000210: 8b5a 77bd 7cc6 13be ae8d 22be a865 6c3e
00000220: dd48 633e 052c 4a3d 26b3 063e d688 d3be
00000230: a0e1 46be d70a 8d3d f919 f9be 65a0 9b3e
00000240: 8efe 01bf bffd 50be 3750 4cbe 8717 edbb
00000250: cc05 883c d85c 03bc 8ab1 1c3e 5bf6 67be
00000260: f5a4 543e cf28 72bd 596c 353e 7b1a 2b3f
00000270: 301e 29bd 2121 6cbe cb18 ad3d f08c 713e
00000280: 7bfe aa3e 8fa3 603e 1046 a7bd 883c 97bd
00000290: 608a a93d cc80 413e 296f a2be 6d12 a83e
000002a0: 66ac de3e 1910 e1be 8d64 b43e 0127 88be
000002b0: e31d a2be a80e e7be 504b 24be 0005 9dbe
000002c0: 9849 273d e868 a23e 961b 0a3e 1b5b 853e
000002d0: 348f 863d 9052 a1be 6048 203d 7c9f 96be
000002e0: 451f fc3b 58b7 54bd c8c3 093c 8ded ed3c
000002f0: f726 143f b5ec 3bbe 1f0b d3be ebf1 04bf
00000300: ac27 d8bd 1877 153c c529 0c3f 0437 423e
00000310: fa46 83be e453 a5be 072d cbbd bf25 5b3e
00000320: 6149 7fbe b6dd d9be 5c23 c53e 3815 01bf
00000330: 5e05 1d3d d066 923e 9190 c83e 01ef 4fbe
00000340: 0248 d6bd 50e4 90be 4d37 fbbe c5b9 1f3d
00000350: 7494 143e 749d c73e 31d1 c5be e5ab ae3d
00000360: 8199 99be ddcc f7bd 0f6e 993e 44f4 90be
00000370: e4b2 bfbc 4985 c4be 7aca 5ebd f966 073e
00000380: f07c 0a3f 9fe1 2bbe f857 5cbb d3f4 d63e
00000390: eb17 b8bd 0c12 713e 2e73 35be 6226 e43e
000003a0: d5c8 973e 2b15 f63e 378c e43d f0b8 b8be
000003b0: 0aff 4dbe b668 f1be e689 88be 115c ba3d
000003c0: 3334 b3bd b43f 0b3d 67b8 853c 5eec abbe
000003d0: 4676 b7be ec1b 46be 59b8 833e 6661 dabe
000003e0: def6 7abe 1735 1dbd 762a 443d 69c1 933e
000003f0: a9ca b6be bb08 e93d 4288 bd3d f739 c7be

module_list.0.subnet.0.bias f4 [128]
0.37539423 0.069047585 0.44382602 -0.30362487 -0.14360975 -0.63222873 -0.26655853 -0.45146415
0.4302749 -0.17440139 -0.3319756 0.26742038 -0.48199654 0.16024803 -0.16091125 0.5848826
0.46179911 0.6135717 -0.5106659 0.3400866 -0.25649405 0.42561457 -0.036205225 0.56162566
-0.21371494 0.06097304 0.36608598 -0.09329663 0.11241897 0.07242568 -0.54474205 0.58974904
0.4965876 0.4952118 0.26422098 -0.09671913 0.2026419 0.36537722 0.19377087 -0.36011514
0.62122345 0.25890434 0.66811407 -0.5926917 0.43344307 0.4650108 0.57878757 0.5421305
0.12763648 -0.024761882 0.110789225 -0.15101382 -0.43792832 0.12503144 -0.5258237 -0.15843625
-0.21095538 0.4914429 0.037992295 0.51566863 -0.46271494 -0.22870694 -0.3424984 0.31623966
-0.4261929 0.4654712 0.05412416 -0.012565192 -0.43883267 0.013062876 0.5839314 0.5888858
0.31107745 0.4371059 0.5039136 -0.1339264 0.32545203 0.22803995 -0.24678396 -0.20847067
-0.22374448 0.11758853 -0.06446108 0.48588833 -0.5723953 -0.45647278 0.54543936 0.43063754
-0.50589514 -0.630457 -0.049781807 -0.5545695 0.3172349 0.3039444 0.28063062 -0.2876289
-0.13543937 0.45813346 -0.554919 -0.321962 0.57879347 0.33896762 -0.19525921 -0.27881473
-0.0051629217 0.27344123 -0.3851239 -0.24606788 0.071131244 -0.1296109 -0.55804294 0.19364591
0.35991785 0.08194148 -0.10345278 0.35842952 0.227815 -0.46207365 0.50726086 0.52372533
-0.43531042 -0.31018353 -0.64988494 -0.21351172 -0.25017625 -0.06828937 0.5966259 0.42659906
00000000: ac33 c03e d268 8d3d 2a3d e33e b874 9bbe
00000010: 6f0e 13be bed9 21bf 5c7a 88be 4f26 e7be
00000020: fe4c dc3e 4796 32be b5f8 a9be 53eb 883e
00000030: 40c8 f6be 0f18 243e ebc5 24be deba 153f
00000040: ef70 ec3e 0913 1d3f 00bb 02bf d51f ae3e
00000050: 3053 83be 27ea d93e ee4b 14bd b3c6 0f3f
00000060: 17d8 5abe debe 793d 9f6f bb3e 4e12 bfbd
00000070: eb3b e63d ea53 943d 3774 0bbf cbf9 163f
00000080: bb40 fe3e 678c fd3e f947 873e ae14 c6bd
00000090: 5c81 4f3e b912 bb3e df6b 463e 0361 b8be
000000a0: 8008 1f3f 1c8f 843e 8609 2b3f a5ba 17bf
000000b0: 40ec dd3e e515 ee3e 6c2b 143f 10c9 0a3f
000000c0: 23b3 023e 6ed9 cabc 76e5 e23d 5ea3 1abe
000000d0: 2438 e0be 3e08 003e 629c 06bf 1d3d 22be
000000e0: b004 58be 679e fb3e cf9d 1b3d dc02 043f
000000f0: f9e8 ecbe 2732 6abe f35b afbe 2aea a13e
00000100: f535 dabe 3e52 ee3e 4cb1 5d3d 3cde 4dbc
00000110: adae e0be ac05 563c 877c 153f 38c1 163f
00000120: 8b45 9f3e 58cc df3e 7b00 013f 0124 09be
00000130: a6a1 a63e 4e83 693e efb4 7cbe 5679 55be
00000140: 461d 65be 41d2 f03d 2c04 84bd 5bc6 f83e
00000150: 8088 12bf cdb6 e9be eaa1 0b3f 867c dc3e
00000160: 5882 01bf a165 21bf 02e8 4bbd 44f8 0dbf
00000170: 9d6c a23e 9a9e 9b3e d1ae 8f3e 1844 93be
00000180: 9eb0 0abe 7890 ea3e 2c0f 0ebf 34d8 a4be
00000190: cf2b 143f 2a8d ad3e 08f2 47be cec0 8ebe
000001a0: ba2d a9bb 7d00 8c3e f62e c5be 38f9 7bbe
000001b0: 42ad 913d b8b8 04be e7db 0ebf 1d4b 463e
000001c0: 2747 b83e efd0 a73d 0ddf d3bd 1384 b73e
000001d0: 5648 693e eb94 ecbe d9db 013f dd12 063f
000001e0: 02e1 debe 60d0 9ebe dc5e 26bf d1a2 5abe
000001f0: 1a17 80be 4cdb 8bbd 7abc 183f 316b da3e

module_list.0.subnet.2.weight f4 [128, 128]
0.04933826 0.1287945 -0.020611148 0.124060825 -0.0071126763 0.0524518 0.0809251 0.008041771
0.060077537 0.094969355 -0.035741895 0.010580823 0.14129254 0.015401132 -0.01755844 0.050166763
0.116503276 0.09168303 -0.050150048 -0.01076921 0.099793665 0.022935254 -0.0020726372 0.12996726
0.14736183 0.031700794 -0.0334277 -0.015180738 0.13171422 -0.023543406 -0.013961054 0.009781242
0.057517875 -0.03556267 -0.010480846 0.14149038 0.12102315 0.0956385 0.031202082 0.13421917
0.020676369 0.04878211 0.071293905 0.018259443 0.004352236 0.037338313 0.08819506 0.11067357
0.03993619 0.07608135 0.019768005 0.12343643 0.088976845 0.04521693 -0.08760769 -0.009286826
0.043657277 0.10927417 0.06435141 -0.03252338 0.041922435 0.011180586 0.05018092 0.09246894
0.10060865 0.027241655 0.12115998 0.12967035 -0.036801234 0.038657047 0.014269294 -0.034819
0.055061266 0.029430555 0.025632316 -0.018063135 0.06822405 0.06377092 -0.020460041 0.03678499
0.083665006 0.093305655 -0.0018298486 -0.034906026 0.0029676205 0.05790127 0.021428658 0.1349501
-0.017872578 0.002636577 0.1315062 0.036868148 -0.0033294002 0.02744093 0.10293187 0.098335445
-0.03457032 -0.029308481 0.12862676 0.04334748 0.13156743 0.074385755 0.06332683 0.09924804
0.04585871 0.022798495 0.07792741 0.043979596 0.008494422 0.10748561 -0.045067407 0.08723899
0.012627949 0.0817114 0.0772336 0.093323864 0.07925267 -0.040401343 0.04476742 0.07991965
-0.021101624 0.00097567885 -0.043177538 0.027766393 0.083896115 0.12698485 -0.018512907 0.026234088
0.03269194 -0.015250972 0.0057645584 -0.0743152 0.049661722 0.057543367 0.02396261 -0.04762625
0.032382067 0.11406241 0.112952165 0.116487235 -0.067650676 0.056481387 -0.02078628 0.023682063
0.09026237 0.08959736 -0.055588298 0.07766438 -0.06446724 -0.0015637677 -0.0016320655 0.06935477
0.06430283 0.077938996 0.023403203 0.09491577 0.12587953 -0.03546335 -0.04687349 0.042969298
0.057904758 0.08485645 -0.0053395703 0.020955067 -0.00087215914 0.13941777 0.014706694 0.07857674
0.10985303 -0.030944519 0.09722079 0.0022726266 0.14031224 0.02202123 0.058664408 0.028293878
0.13521217 0.117518194 -0.06535374 -0.05511985 -0.04937595 0.019316817 -0.066709995 0.034759436
-0.07766321 0.011286717 0.108474106 0.11294628 -0.03589741 0.10714069 0.0002565645 0.109581105
-0.09887 -0.0067097293 0.08479667 0.015098701 0.04246347 -0.02436617 0.015069093 0.034411952
0.057228327 0.07311485 0.03208888 -0.06519078 -0.005907621 -0.05173825 0.042020377 0.111052826
0.10364239 -0.0086765215 0.0087642865 0.119190976 0.04387131 0.021457495 0.09390864 0.06822066
-0.006968226 0.09082725 0.033620648 -0.055363122 -0.028282253 -0.015873956 0.13056433 0.00051747
-0.0046661394 -0.013748847 -0.070086695 0.034444712 0.07803816 0.084157355 0.0021566073 -0.027100917
-0.043211948 0.12743036 -0.025623225 0.029113643 0.056542568 -0.04243466 0.01568432 -0.036447886
-0.026114574 -0.026697364 0.058949724 0.10187468 0.0010415048 0.047302224 -0.024982965 -0.03300421
0.06390331 0.05583413 -0.063583925 0.076385885 0.08338689 0.08762421 0.15106602 0.059369814
00000000: ea16 4a3d b5e2 033e b6d8 a8bc 9a13 fe3d
00000010: 7411 e9bb b3d7 563d 0fbc a53d a2c1 033c
00000020: dd13 763d 4b7f c23d 1866 12bd 305b 2d3c
00000030: feae 103e 0855 7c3c b8d6 8fbc aa7b 4d3d
00000040: 4599 ee3d 50c4 bb3d 236a 4dbd 5771 30bc
00000050: 9f60 cc3d b7e2 bb3c 15d5 07bb 2316 053e
00000060: 05e6 163e b1d8 013d 7ceb 08bd a1b8 78bc
00000070: 18e0 063e 1ade c0bc e8bc 64bc 8141 203c
00000080: dd97 6b3d 2aaa 11bd dbb7 2bbc dbe2 103e
00000090: fcda f73d 1ede c33d 829b ff3c c070 093e
000000a0: 7d61 a93c c0cf 473d 8a02 923d d494 953c
000000b0: 349d 8e3b 0ff0 183d 9d9f b43d d3a8 e23d
000000c0: 2194 233d 8ad0 9b3d 83f0 a13c 3dcc fc3d
000000d0: 7e39 b63d 6335 393d a96b b3bd c527 18bc
000000e0: f9d1 323d 23cb df3d acca 833d 3c37 05bd
000000f0: dcb6 2b3d c72e 373c 828a 4d3d 5b60 bd3d
00000100: e80b ce3d e429 df3c b922 f83d 4ec8 043e
00000110: e4bc 16bd da56 1e3d c2c9 693c 5e9e 0ebd
00000120: ec87 613d 5918 f13c ddfa d13c 24f9 93bc
00000130: 0db9 8b3d 549a 823d d19b a7bc dcab 163d
00000140: 8f58 ab3d 0917 bf3d 88d7 efba 9ff9 0ebd
00000150: 697c 423b e229 6d3d 278b af3c 5c30 0a3e
00000160: 8369 92bc 6cca 2c3b 90a9 063e 0e03 173d
00000170: 1132 5abb cdcb e03c f2cd d23d 1864 c93d
00000180: 9c99 0dbd 5718 f0bc bcb6 033e 218d 313d
00000190: 9db9 063e 8f57 983d 7fb1 813d 8e42 cb3d
000001a0: 58d6 3b3d e9c3 ba3c 6898 9f3d f323 343d
000001b0: 302c 0b3c 6a21 dc3d 9a98 38bd 5baa b23d
000001c0: 75e5 4e3c 4e58 a73d a62c 9e3d 9520 bf3d
000001d0: 394f a23d e17b 25bd 0b5e 373d eaac a33d
000001e0: 50dd acbc b3c4 7f3a eeda 30bd 5976 e33c
000001f0: bad1 ab3d 5108 023e 61a8 97bc dfe8 d63c
00000200: fce7 053d 36df 79bc 9fe4 bc3b 9132 98bd
00000210: 176a 4b3d 98b2 6b3d 3c4d c43c be13 43bd
00000220: 0fa3 043d 8e99 e93d 7753 e73d dc90 ee3d
00000230: 708c 8abd 0759 673d fd47 aabc e300 c23c
00000240: 7adb b83d d27e b73d 8eb0 63bd 810e 9f3d
00000250: 6607 84bd 56f7 ccba 08eb d5ba e009 8e3d
00000260: 34b1 833d 7b9e 9f3d 13b8 bf3c 3363 c23d
00000270: 90e6 003e 0542 11bd 6bfe 3fbd 9300 303d
00000280: 8a2d 6d3d 38c9 ad3d 90f7 aebb f6a9 ab3c
00000290: 9ca1 64ba 88c3 0e3e 58f4 703c d8ec a03d
000002a0: a0fa e03d 5c7f fdbc b21b c73d 59f0 143b
000002b0: 03ae 0f3e de65 b43c 174a 703d 90c8 e73c
000002c0: 0f75 0a3e 61ad f03d 2ed8 85bd 5ac5 61bd
000002d0: 703e 4abd 4d3e 9e3c 409f 88bd e95f 0e3d
000002e0: e40d 9fbd eceb 383c ac27 de3d 6150 e73d
000002f0: 2a09 13bd 946c db3d 8183 8639 0f6c e03d
00000300: 5b7c cabd 4add dbbb e0a9 ad3d 8b60 773c
00000310: 2dee 2d3d 909b c7bc 5be4 763c 8cf3 0c3d
00000320: 4068 6a3d 3dbd 953d a16f 033d be82 85bd
00000330: b794 c1bb 7deb 53bd 8f1d 2c3d aa6f e33d
00000340: 7642 d43d f827 0ebc 1598 0f3c 661a f43d
00000350: 67b2 333d a1c7 af3c 2c53 c03d 46b7 8b3d
00000360: b755 e4bb a303 ba3d ceb5 093d 71c4 62bd
00000370: 2fb0 e7bc 190a 82bc a8b2 053e d3a6 073a
00000380: 6ae6 98bb d842 61bc 9d89 8fbd e615 0d3d
00000390: 79d2 9f3d b15a ac3d de55 0d3b be02 debc
000003a0: 03ff 30bd 1b7d 023e cce7 d1bc bc7f ee3c
000003b0: 2e99 673d f7cf 2dbd 677c 803c 614a 15bd
000003c0: 3bee d5bc 6eb4 dabc 4475 713d aca3 d03d
000003d0: 1a83 883a fabf 413d 13a9 ccbc 6c2f 07bd
000003e0: bddf 823d 54b2 643d 4a38 82bd 3470 9c3d
000003f0: bfc6 aa3d 5274 b33d 0db1 1a3e c32d 733d

module_list.0.subnet.2.bias f4 [128]
0.047225207 -0.018117508 0.0325026 -0.07484972 0.020343207 0.1078036 0.06043136 0.10672478
0.07916236 -0.01901096 0.004035834 -0.060155194 -0.109093696 0.03478551 0.020670716 0.010795731
0.031156389 0.14453818 0.11616949 -0.029914858 -0.06646529 0.015297899 -0.04082485 -0.067157194
-0.053878173 0.10905274 -0.039654 0.021327939 0.07145136 -0.08112006 0.037886497 -0.05090611
-0.04160971 0.11151424 0.13539803 -0.04280479 -0.06135664 -0.019940969 0.124935016 0.074412584
-0.04502672 0.09223552 0.10805124 0.06163708 -0.0090968525 0.068064325 -0.07425065 0.070504144
0.040976863 0.030456763 0.09235051 0.029944465 0.13059585 0.10049278 0.051912718 -0.07284976
-0.012602631 0.050030615 -0.02786804 -0.028490696 0.11078829 0.122050285 0.086099535 0.029155407
0.08600473 0.030355886 -0.0063794944 0.09138257 0.116929606 0.0368663 -0.035725653 -0.024754437
-0.03453851 0.04612787 0.106415726 0.059600446 -0.030952513 0.032388054 0.017168736 0.10749681
-0.0006072433 -0.020331291 0.12026949 -0.077332266 -0.012391801 -0.043005012 0.07620033 -0.03300288
-0.02827502 0.03944781 -0.048139606 0.06915448 0.10770179 -0.030823557 -0.011690021 0.11868458
0.02584151 -0.06696661 0.13718116 0.14597012 0.028485095 0.053004287 0.0073238816 0.009728678
0.013155703 0.008918895 0.010789565 0.031124039 0.14656919 0.07667627 0.030987233 0.065249234
0.10163914 0.0039573736 0.013698773 0.009862491 0.08847834 0.029335618 -0.01999847 0.10267802
0.03837338 0.04365323 0.13147838 0.04061424 -0.038062237 0.045253925 -0.0062246905 0.035029117
00000000: 386f 413d 2b6b 94bc 7221 053d cf4a 99bd
00000010: cca6 a63c 22c8 dc3d e086 773d 8592 da3d
00000020: e01f a23d dfbc 9bbc 083f 843b 4b65 76bd
00000030: 846c dfbd 407b 0e3d a255 a93c 94e0 303c
00000040: af3b ff3c d101 143e 45ea ed3d 0110 f5bc
00000050: f41e 88bd 0aa4 7a3c f537 27bd b689 89bd
00000060: 5caf 5cbd 0b57 df3d 3c6c 22bd eeb7 ae3c
00000070: 1755 923d 4622 a6bd df2e 1b3d ed82 50bd
00000080: f16e 2abd 9461 e43d c8a5 0a3e 1354 2fbd
00000090: 1a51 7bbd 3e5b a3bc eedd ff3d a065 983d
000000a0: f06d 38bd fae5 bc3d f849 dd3d 2a77 7c3d
000000b0: f70a 15bc 4f65 8b3d ba10 98bd 7a64 903d
000000c0: 5bd7 273d 7680 f93c 4422 bd3d 184e f53c
000000d0: ebba 053e 29cf cd3d 6ea2 543d 4132 95bd
000000e0: 447b 4ebc e7ec 4c3d 844b e4bc 5265 e9bc
000000f0: f9e4 e23d 80f5 f93d f454 b03d 52d7 ee3c
00000100: 3f23 b03d e8ac f83c 140b d1bb c926 bb3d
00000110: ca78 ef3d 1e01 173d 1055 12bd d1c9 cabc
00000120: 4178 0dbd 94f0 3c3d 7df0 d93d 991f 743d
00000130: 2090 fdbc 56a9 043d 73a5 8c3c 4a27 dc3d
00000140: 682f 1fba cf8d a6bc da4f f63d 6160 9ebd
00000150: fb06 4bbc 0626 30bd eb0e 9c3d 072e 07bd
00000160: 04a1 e7bc 0794 213d 092e 45bd dda0 8d3d
00000170: c292 dc3d af81 fcbc 8087 3fbc e710 f33d
00000180: 93b1 d33c ca25 89bd 3879 0c3e 3179 153e
00000190: 9359 e93c 061b 593d 2cfd ef3b 0865 1f3c
000001a0: 058b 573c 8f20 123c b7c6 303c d7f7 fe3c
000001b0: 3c16 163e 7308 9d3d f0d8 fd3c 64a1 853d
000001c0: 2e28 d03d dbac 813b d270 603c 4996 213c
000001d0: 2234 b53d 4051 f03c d5d3 a3bc db48 d23d
000001e0: 682d 1d3d bbcd 323d 45a2 063e 1e5b 263d
000001f0: 26e7 1bbd 2e5c 393d 7df8 cbbb b17a 0f3d

module_list.0.subnet.4.weight f4 [6, 128]
-0.10217112 -0.13374966 -0.039121557 -0.07631579 0.050203852 -0.042489234 -0.1933646 -0.30314547
-1.5282371 0.059847042 0.07453246 -0.029474333 0.05521895 -0.015322372 -0.10485681 -0.09315197
-0.047141835 -0.10500775 -0.7099 -0.26615328 -0.084605336 -0.05319875 -0.04095721 0.63624984
0.0012975028 -0.042763535 -0.5645659 0.33142537 -0.04723833 0.050935633 -0.14126709 0.04183889
0.03950662 -0.058707736 -0.08652994 -0.039444815 -0.021280315 -0.8352446 -0.23259425 -0.2629816
0.017957475 -0.13477138 -0.0023575756 -0.8515182 -0.20499575 1.0381881 0.006999966 0.056659736
-0.13311848 -0.63576335 0.1097402 0.008432682 -0.11070736 -0.24858072 0.07555924 -0.064572856
-0.070280746 0.0174284 -0.0063110017 -0.49132812 -0.15849482 -0.42147505 -0.06216875 -0.32050008
-0.094795294 0.085623026 -0.16817495 -0.36812738 -0.27799568 -0.23445693 0.07584818 -0.16211459
0.052630547 -0.055319518 -0.114826255 -0.074628666 -0.09736674 -0.36919034 -0.28858793 -0.1785689
0.014755109 -0.23858275 -0.17123787 0.05774162 -0.11875889 -0.0360589 -0.45290774 -0.08779663
-0.29041255 -0.014670035 0.008169436 0.017989561 -0.42040518 0.04268439 -0.2082095 -1.1054493
-0.13365388 -0.08241993 -1.0604794 -0.3441397 0.04563008 -0.04824436 -0.19965023 -0.08614471
-0.13952376 0.021140788 -0.3274881 -0.1580095 -0.1760772 -0.010879181 -0.07781193 -0.09414353
-0.25389788 -0.09307839 -0.44483265 0.018428538 -1.2111957 -0.28784686 -1.7442839 -0.16431093
-0.25017443 -0.123969845 -0.2436313 -0.24429068 -0.069315985 -0.07655746 -0.5209609 -0.17929703
0.99191993 0.90013784 0.0575658 1.1575067 0.022577815 0.871213 1.31382 0.8820976
0.61755604 -0.07034861 -0.07651243 0.07133465 -0.03399147 -0.038748927 1.1213943 0.9522239
1.1626283 1.0002025 0.5828446 0.79563576 0.04685729 1.53153 0.856472 0.63739276
0.018900102 1.2441033 0.404828 0.32271993 1.0842606 -0.07419032 1.4648652 -0.075273246
-0.05155509 0.8323753 1.2437475 0.004918401 -0.025891125 0.8790588 1.3136787 1.2344177
0.025265347 0.94163704 1.0364246 0.7867467 0.9417191 0.74042594 0.6653054 -0.057809927
0.75885564 0.6522938 0.70736784 -0.04789315 0.8746846 1.0097295 2.0525935 -0.053001612
1.1337916 -0.07966087 -0.062417008 -0.0018155432 1.1935822 1.1304001 1.2557081 0.9983946
0.79760224 0.862607 1.1574616 0.39240554 1.2429383 1.2629411 -0.045210417 0.86449105
0.5816778 1.0599533 0.37506256 1.12159 1.3347446 1.5216445 0.54666954 1.6185818
-0.056075428 0.7431683 0.8814611 -0.059808474 1.1176854 -0.022656836 0.7218655 0.022110626
0.81841946 -0.040300395 -0.03138386 -0.035514988 0.9163443 -0.02805642 0.9100949 1.2438997
1.3421718 -0.026372429 2.0179334 0.98016626 -0.050830696 -0.06345236 1.2485943 0.9786161
0.71852845 0.8538255 0.9582197 1.0881912 1.2199364 2.008566 -0.076387644 1.006482
0.959766 0.971686 0.6582824 0.935087 0.75198454 1.2272335 0.03214975 0.61545193
1.1491486 0.7786763 1.0687364 0.9086761 0.02388477 0.03242781 0.5246578 1.0267035
00000000: 183f d1bd acf5 08be ed3d 20bd 744b 9cbd
00000010: 8ea2 4d3d 3109 2ebd 5f01 46be e235 9bbe
00000020: 469d c3bf 2c22 753d 79a4 983d 2874 f1bc
00000030: 442d 623d b00a 7bbc 2bbf d6bd 76c6 bebd
00000040: cc17 41bd 4e0e d7bd 02bc 35bf 3e45 88be
00000050: 9045 adbd efe6 59bd bfc2 27bd 45e1 223f
00000060: f810 aa3a d128 2fbd 6487 10bf 96b0 a93e
00000070: fb7c 41bd e2a1 503d 52a8 10be 425f 2b3d
00000080: b2d1 213d 8677 70bd 9c36 b1bd e390 21bd
00000090: 0e54 aebc 97d2 55bf 302d 6ebe 86a5 86be
000000a0: 8e1b 933c 8201 0abe 8e81 1abb 19fd 59bf
000000b0: 68ea 51be 59e3 843f f95f e53b 0a14 683d
000000c0: 3650 08be 63c1 22bf 78bf e03d 3b29 0a3c
000000d0: 8aba e2bd f28b 7ebe cebe 9a3d c63e 84bd
000000e0: 5aef 8fbd 01c6 8e3c 85cc cebb 5c8f fbbe
000000f0: 774c 22be 94cb d7be a9a4 7ebd 9618 a4be
00000100: 0924 c2bd 205b af3d 0e36 2cbe 317b bcbe
00000110: 7355 8ebe 7a15 70be 4a56 9b3d 5e01 26be
00000120: 2193 573d b896 62bd 072a ebbd ead6 98bd
00000130: 3768 c7bd 8406 bdbe ccc1 93be c4da 36be
00000140: 6abf 713c 094f 74be fb58 2fbe 7a82 6c3d
00000150: dc37 f3bd 7fb2 13bd 86e3 e7be b8ce b3bd
00000160: f4b0 94be 965a 70bc 19d9 053c d85e 933c
00000170: 593f d7be d4d5 2e3d df34 55be 5d7f 8dbf
00000180: 90dc 08be c8cb a8bd cabd 87bf 1433 b0be
00000190: 9be6 3a3d e19b 45bd 1c71 4cbe a36c b0bd
000001a0: 51df 0ebe 722f ad3c 85ac a7be 3ecd 21be
000001b0: 954d 34be 983e 32bc dc5b 9fbd 53ce c0bd
000001c0: e7fe 81be e29f bebd 1bc1 e3be 72f7 963c
000001d0: 7608 9bbf aa60 93be b244 dfbf 2041 28be
000001e0: dd16 80be e7e3 fdbd 7c7a 79be 5627 7abe
000001f0: 8af5 8dbd 28ca 9cbd b25d 05bf a499 37be
00000200: 77ee 7d3f 6f6f 663f 1eca 6b3d 2e29 943f
00000210: 1cf5 b83c d107 5f3f 412b a83f 26d1 613f
00000220: 2718 1e3f ef12 90bd 8db2 9cbd e717 923d
00000230: a43a 0bbd 32b7 1ebd d989 8f3f f2c4 733f
00000240: 01d1 943f a306 803f 4e35 153f c9ae 4b3f
00000250: 6eed 3f3d 2d09 c43f c041 5b3f 2c2c 233f
00000260: 63d4 9a3c c73e 9f3f 9e45 cf3e 8c3b a53e
00000270: 0dc9 8a3f 18f1 97bd b480 bb3f dc28 9abd
00000280: 6e2b 53bd 8c16 553f 1e33 9f3f 8a2a a13b
00000290: a019 d4bc ff09 613f a026 a83f 6601 9e3f
000002a0: 46f9 ce3c 200f 713f 90a9 843f 3b68 493f
000002b0: 8114 713f 8e8c 3d3f 7451 2a3f 1aca 6cbd
000002c0: 5d44 423f bafc 263f 0f16 353f 9c2b 44bd
000002d0: 54eb 5f3f d13e 813f b15d 0340 3818 59bd
000002e0: 1520 913f 3d25 a3bd faa8 7fbd 85f7 edba
000002f0: 4dc7 983f f3b0 903f 0bbb a03f ca96 7f3f
00000300: a92f 4c3f d0d3 5c3f b427 943f 61e9 c83e
00000310: 9a18 9f3f 0ea8 a13f 8f2e 39bd 494f 5d3f
00000320: d6e8 143f 8dac 873f 3308 c03e 4390 8f3f
00000330: e9d8 aa3f 3fc5 c23f 89f2 0b3f b02d cf3f
00000340: 59af 65bd 4740 3e3f 6fa7 613f bbf9 74bd
00000350: 5110 8f3f d49a b9bc 2dcc 383f 5821 b53c
00000360: f083 513f 0712 25bd 5d8c 00bd 2a78 11bd
00000370: 8a95 6a3f 94d6 e5bc fbfb 683f 1b38 9f3f
00000380: 49cc ab3f fe0a d8bc d225 0140 2dec 7a3f
00000390: d933 50bd 50f3 81bd f0d1 9f3f 9686 7a3f
000003a0: 7bf1 373f 4f94 5a3f e34d 753f d949 8b3f
000003b0: e026 9c3f 588c 0040 2071 9cbd 67d4 803f
000003c0: 39b3 753f 6ac0 783f 3285 283f dd61 6f3f
000003d0: 0f82 403f fd15 9d3f 75af 033d 428e 1d3f
000003e0: 4d17 933f 5457 473f 5bcc 883f ff9e 683f
000003f0: fea9 c33c 06d3 043d f94f 063f 056b 833f

module_list.0.subnet.4.bias f4 [6]
-0.363492 0.48523822 0.10767063 -0.060852177 -0.04927452 0.0052115847
00000000: a01b babe 2571 f83e 6b82 dc3d 2240 79bd
00000010: 14d4 49bd f1c5 aa3b

module_list.1.global_scale f4 [1, 6]
10.037661 10.13242 10.064233 10.095373 10.066749 10.002973
00000000: 429a 2041 641e 2241 1907 2141 a686 2141
00000010: 6711 2141 2d0c 2041

module_list.1.global_offset f4 [1, 6]
0.017237822 -0.0013499841 -0.0076877475 0.0011744126 -0.013422034 0.025179759
00000000: 5536 8d3c f3f1 b0ba 80e9 fbbb bfee 993a
00000010: 17e8 5bbc c845 ce3c

module_list.1.w_perm f4 [6, 6]
0.47274432 -0.6601577 0.22959928 -0.12315433 -0.14765555 -0.50101864 0.15745248 -0.33492732
-0.65764934 0.5523759 -0.26785114 0.23166005 0.32966617 -0.28636715 0.35067987 0.055774707
0.4210589 0.71129197 -0.10189775 0.1303398 0.5777293 0.76621103 -0.18077332 -0.13819885
-0.78995764 -0.5912855 0.050450586 -0.0039873747 0.15372252 0.012514863 -0.09287377 -0.058329962
0.23556052 -0.29917857 -0.82027644 0.4124586
00000000: 8b0b f23e 1800 29bf 131c 6b3e 5638 fcbd
00000010: 0433 17be c242 00bf 393b 213e 987b abbe
00000020: b55b 28bf 8268 0d3f c923 89be 4b38 6d3e
00000030: 01ca a83e b79e 92be 508c b33e 0574 643d
00000040: 0895 d73e 3b17 363f c4af d0bd cc77 053e
00000050: 11e6 133f 6826 443f a41c 39be 0084 0dbe
00000060: aa3a 4abf 7d5e 17bf 46a5 4e3d 86a8 82bb
00000070: 7069 1d3e 240b 4d3c 9a34 bebd 66eb 6ebd
00000080: c736 713e ef2d 99be a3fd 51bf c62d d33e

module_list.1.subnet.0.weight f4 [128, 3]
0.3467238 0.21441005 0.20787922 0.5839436 -0.04131765 0.0528646 0.21831994 -0.040025212
-0.39793396 -0.044977248 0.15918227 -0.0011888117 -0.56845826 0.2950751 -0.45289928 -0.53844625
-0.51720536 0.42752135 0.10601395 0.35397843 -0.3110648 0.5802924 -0.36716476 -0.31113568
-0.41216204 -0.03904418 0.44212687 0.6468725 -0.13612588 -0.44935408 -0.4279241 0.35506347
-0.39416617 0.3158279 -0.18237692 -0.108031936 -0.3822667 -0.07295767 -0.33563685 0.23622938
0.04476299 0.52632 -0.38626018 -0.5312333 0.062163897 0.57777506 0.29431632 -0.13793324
-0.4418837 0.38084474 0.142084 0.27425176 -0.48460263 -0.07358411 -0.16443834 0.23641866
0.5380412 0.5076154 -0.13219017 -0.078658454 0.37338337 0.14356808 -0.18868668 0.17142768
-0.03359568 0.36878437 -0.6002975 -0.14903852 -0.122352995 0.09635767 -0.46973187 -0.061596125
-0.22811306 0.24725983 -0.09502176 0.2539055 -0.046345945 0.4060287 -0.5458221 0.11168394
0.23677951 0.5499453 0.12760748 0.57094806 -0.3305274 0.34844574 0.58779496 -0.4240239
-0.18934108 -0.3951584 -0.2844206 0.3971439 -0.46690702 -0.52545094 0.0032622842 -0.5133273
-0.5623901 -0.16583055 0.086443916 0.25856572 -0.35224184 0.28752518 0.5461261 -0.083256155
-0.14572796 -0.64010257 0.09942679 0.5495741 -0.40739143 0.09612211 -0.39043066 0.4787254
-0.016336588 0.37253356 0.24709892 0.07073236 -0.14666308 -0.3579678 0.122459605 -0.19491264
0.47834018 -0.080251105 0.31752425 -0.67000246 0.11687505 -0.16359109 -0.008866067 0.3839225
-0.0023030387 0.00885334 0.12105628 -0.4519144 0.43844625 -0.45054427 0.17166103 -0.06406037
0.49695733 -0.35992733 0.63722324 0.35290638 0.2583548 -0.16425262 -0.044276685 -0.22520056
0.46149108 0.044903558 -0.39503667 -0.008981366 0.17157052 0.3131673 0.22144791 -0.16566163
-0.4834018 -0.16729155 -0.30842516 -0.42962974 0.33233082 -0.34255335 0.19369212 0.48946717
-0.36215052 0.15824848 0.23134397 0.18024702 0.4539087 0.23850995 -0.29032087 0.38931352
-0.023169208 -0.114333294 -0.123782285 0.33201903 -0.09507265 -0.43084794 0.5144327 -0.42768627
-0.42839867 0.38992327 -0.29662633 0.19289486 -0.48674133 -0.3508788 -0.06946749 -0.49204203
0.22581565 -0.28368834 -0.19382313 -0.17095757 0.3274968 0.0894463 -0.34192082 -0.47813272
0.4499877 0.112048544 0.15190487 -0.40915078 -0.026750434 -0.13352983 0.289942 -0.07991939
-0.440011 -0.5871843 0.35161322 0.2931155 -0.6327336 0.5581512 0.06679358 -0.21699248
0.021420347 -0.09598699 -0.16526473 -0.055632487 -0.3577188 -0.561959 0.28636247 -0.29335815
0.1545096 0.12761085 -0.4098902 -0.36287385 0.09199338 0.082473435 0.6940061 0.26044652
-0.18880452 -0.49996176 -0.36092597 -0.21124819 -0.5554839 -0.06406606 0.047802553 0.07314735
0.47961828 0.2077343 0.5266758 0.26710725 0.49968472 -0.6675762 -0.12272977 0.16822568
0.42396104 0.16334343 -0.035747536 0.38304174 0.57606894 -0.18928817 -0.034709647 -0.018051853
-0.4214315 -0.24340145 -0.43880925 -0.41937378 0.08054989 0.37421596 0.12851967 -0.40982342
00000000: c885 b13e 4f8e 5b3e 4ade 543e 547d 153f
00000010: b23c 29bd 8d88 583d 438f 5f3e 7af1 23bd
00000020: 00be cbbe 103a 38bd ad00 233e e7d1 9bba
00000030: 7b86 11bf 1514 973e 6ae2 e7be 9dd7 09bf
00000040: 9267 04bf 14e4 da3e d81d d93d a93c b53e
00000050: e343 9fbe 0b8e 143f 05fd bbbe 2d4d 9fbe
00000060: e706 d3be caec 1fbd 745e e23e 7099 253f
00000070: 9564 0bbe bd11 e6be de18 dbbe e1ca b53e
00000080: 26d0 c9be 32b4 a13e 04c1 3abe d93f ddbd
00000090: 76b8 c3be d56a 95bd 98d8 abbe 1de6 713e
000000a0: 6659 373d e8bc 063f e5c3 c5be e8fe 07bf
000000b0: 929f 7e3d 11e9 133f a1b0 963e 5f3e 0dbe
000000c0: 953e e2be 15fe c23e 787e 113e ba6a 8c3e
000000d0: d61d f8be 44b3 96bd 8662 28be bc17 723e
000000e0: 11bd 093f 15f3 013f dc5c 07be af17 a1bd
000000f0: 1b2c bf3e 8303 133e 1537 41be bd8a 2f3e
00000100: a09b 09bd 4ed1 bc3e 19ad 19bf 8e9d 18be
00000110: 3594 fabd 2c57 c53d b280 f0be 384c 7cbd
00000120: 7896 69be ae31 7d3e c59a c2bd e7ff 813e
00000130: 3fd5 3dbd fee2 cf3e ffba 0bbf 8dba e43d
00000140: 5476 723e 37c9 0c3f 89ab 023e a729 123f
00000150: e33a a9be 7b67 b23e bb79 163f a919 d9be
00000160: a1e2 41be 3452 cabe 949f 91be 7256 cb3e
00000170: 700e efbe f483 06bf 0ccc 553b 6b69 03bf
00000180: ccf8 0fbf 7ccf 29be 8209 b13d ba62 843e
00000190: 0b59 b4be 8036 933e ecce 0b3f 3482 aabd
000001a0: b639 15be c3dd 23bf 46a0 cb3d e3b0 0c3f
000001b0: 9c95 d0be abdb c43d 87e6 c7be 7f1b f53e
000001c0: 4fd4 85bc b8bc be3e 8007 7d3e 21dc 903d
000001d0: d92e 16be 8e47 b7be 1acc fa3d 2e97 47be
000001e0: 01e9 f43e b15a a4bd 8a92 a23e 4885 2bbf
000001f0: 305c ef3d 6c84 27be fb42 11bc 7d91 c43e
00000200: 94ee 16bb 990d 113c 5bec f73d 5361 e7be
00000210: 077c e03e bdad e6be e9c7 2f3e 1532 83bd
00000220: 3171 fe3e 6548 b8be 1021 233f 25b0 b43e
00000230: 1547 843e d731 28be 785b 35bd fa9a 66be
00000240: 8f48 ec3e cbec 373d 3f42 cabe 9426 13bc
00000250: 2fb0 2f3e 7757 a03e 3ec3 623e 34a3 29be
00000260: 7180 f7be 7a4e 2bbe e7e9 9dbe 6ef8 dbbe
00000270: 4427 aa3e 2763 afbe 3a57 463e 719b fa3e
00000280: cb6b b9be e40b 223e 6fe5 6c3e ad92 383e
00000290: b966 e83e f43b 743e f0a4 94be 1a54 c73e
000002a0: 5acd bdbc 9327 eabd 9181 fdbd 66fe a93e
000002b0: 73b5 c2bd 1a98 dcbe ddb1 033f b2f9 dabe
000002c0: 1257 dbbe 06a4 c73e 68df 97be 3b86 453e
000002d0: 2936 f9be 63a6 b3be f944 8ebd efec fbbe
000002e0: 383c 673e 993f 91be 9279 46be 800f 2fbe
000002f0: a9ad a73e 9f2f b73d 3f10 afbe d0cd f4be
00000300: ca64 e63e b579 e53d f38c 1b3e 367c d1be
00000310: ba23 dbbc 0bbc 08be 4773 943e c7ac a3bd
00000320: 1f49 e1be b651 16bf a606 b43e 3c13 963e
00000330: d4fa 21bf ffe2 0e3f 13cb 883d 4733 5ebe
00000340: b979 af3c d494 c4bd 283b 29be e4de 63bd
00000350: eb26 b7be 8cdc 0fbf 1a9e 923e 0a33 96be
00000360: c437 1e3e 6bac 023e 21dd d1be 9aca b9be
00000370: 0667 bc3d d5e7 a83d 62aa 313f 3f59 853e
00000380: f955 41be fdfa ffbe 4acb b8be 7251 58be
00000390: 3134 0ebf 1135 83bd 9ccc 433d 47ce 953d
000003a0: 8790 f53e 4db8 543e 3ad4 063f 48c2 883e
000003b0: add6 ff3e 46e6 2abf bf59 fbbd 5a43 2c3e
000003c0: 6c11 d93e 8043 273e 026c 12bd 0c1e c43e
000003d0: 4179 133f c2d4 41be b42b 0ebd 7be1 93bc
000003e0: dfc5 d7be 3b3e 79be 9bab e0be 29b8 d6be
000003f0: 57f7 a43d 3c99 bf3e a99a 033e 60d4 d1be

module_list.1.subnet.0.bias f4 [128]
0.6175283 0.009139595 -0.44927654 0.35209158 -0.15693723 0.11425524 0.23178555 -0.061744012
-0.25760853 0.32737905 0.47138092 -0.17254774 0.44455665 -0.15444057 -0.273229 0.20035422
-0.097563796 -0.46325785 0.25862962 -0.17677926 0.1940727 0.3566838 0.5227867 -0.28149274
0.064500906 -0.5541151 0.20819417 -0.3815013 0.1560155 0.26117703 0.21833621 0.45275226
0.13693175 -0.2903655 0.5798292 0.60250664 0.58492804 0.5390421 -0.22668847 0.56729746
0.07243438 -0.11797549 0.081938975 0.39864174 0.26422855 -0.24561341 0.52257377 0.017235093
0.11516926 -0.10679814 -0.37351653 0.2544779 -0.443908 0.499052 -0.5379771 0.0017571311
-0.16001837 0.46729824 -0.36782613 -0.54601437 -0.5116688 -0.38204625 -0.0031867865 -0.16809043
-0.38873136 0.027289953 0.66147625 0.071445085 0.3302876 0.45553052 0.049374465 0.075085685
0.10994386 0.104308926 -0.32396394 0.42630792 0.1403208 0.052503582 -0.33600682 -0.17645346
0.29400802 0.26312235 0.37198198 0.24668117 0.51528037 0.073731326 0.40537772 0.3189141
0.3553062 -0.21336679 -0.5438037 -0.27951053 0.003640556 0.18842795 0.4982598 0.60880375
-0.23986554 -0.53300494 0.19103943 -0.02201621 -0.031615328 0.5243363 0.17612097 -0.07104043
-0.28043067 -0.2387854 -0.15499939 -0.23956324 -0.22736552 -0.3123571 -0.2783528 -0.3767309
0.1677096 -0.55801564 -0.3303441 0.14283377 -0.18876655 0.6792582 -0.115173765 -0.45480105
0.35095194 0.2687575 -0.030244388 0.27192473 0.06095734 -0.04254923 -0.3460289 -0.1357158
00000000: 5616 1e3f 3dbe 153c 9307 e6be 5945 b43e
00000010: 27b4 20be a7fe e93d 3159 6d3e 4ae7 7cbd
00000020: 44e5 83be 3a9e a73e d758 f13e 5bb0 30be
00000030: ee9c e33e ab25 1ebe ace4 8bbe a829 4d3e
00000040: 87cf c7bd 2230 edbe 1a6b 843e 9f05 35be
00000050: feba 463e 429f b63e 59d5 053f d11f 90be
00000060: 0d19 843d 7dda 0dbf da30 553e 2354 c3be
00000070: 87c2 1f3e ffb8 853e 8793 5f3e 25cf e73e
00000080: d637 0c3e c9aa 94be b06f 143f e03d 1a3f
00000090: d8bd 153f aafe 093f 0621 68be 683a 113f
000000a0: 7a58 943d 229d f1bd 9fcf a73d c51a cc3e
000000b0: f748 873e 1582 7bbe 65c7 053f 9c30 8d3c
000000c0: dcdd eb3d fcb8 dabd 8f3d bfbe ed4a 823e
000000d0: e947 e3be be83 ff3e deb8 09bf 894f e63a
000000e0: dbdb 23be b741 ef3e b553 bcbe 99c7 0bbf
000000f0: bafc 02bf 919b c3be 68d9 50bb e61f 2cbe
00000100: cc07 c7be 2e8f df3c 8256 293f cd51 923d
00000110: 751b a93e 4c3b e93e e13c 4a3d 86c6 993d
00000120: 3f2a e13d eb9f d53d 9ade a5be 0845 da3e
00000130: 41b0 0f3e ff0d 573d 1609 acbe 37b0 34be
00000140: 3888 963e f9b7 863e 6c74 be3e fd99 7c3e
00000150: 6ae9 033f 7300 973d ab8d cf3e b548 a33e
00000160: b2ea b53e d37c 5abe b836 0bbf 011c 8fbe
00000170: 6596 6e3b 42f3 403e e91b ff3e 90da 1b3f
00000180: 509f 75be 0373 08bf d79f 433e 575b b4bc
00000190: 137f 01bd e73a 063f 0e59 343e a57d 91bd
000001a0: 9c94 8fbe 2984 74be 29b8 1ebe 1150 75be
000001b0: 82d2 68be 45ed 9fbe 4284 8ebe dfe2 c0be
000001c0: 11bc 2b3e 1dda 0ebf dd22 a9be 0443 123e
000001d0: 054c 41be dee3 2d3f 39e0 ebbd afdb e8be
000001e0: f9af b33e 959a 893e 14c3 f7bc b839 8b3e
000001f0: 67ae 793d 1a48 2ebd b32a b1be 15f9 0abe

module_list.1.subnet.2.weight f4 [128, 128]
0.121305235 -0.11425504 -0.14983827 0.12089014 0.010077025 -0.0056857676 0.07887439 -0.25765792
0.11371101 -0.033408858 0.028861139 -0.25539553 0.07876245 -0.030096391 -0.14483418 0.0054163914
0.17767471 -0.23130599 -0.0046595815 -0.15460445 -0.023700062 -0.017905418 0.084756345 -0.16702819
0.035980772 0.022126762 0.06091788 0.054063056 0.0442333 0.081391804 0.03628798 -0.03743148
0.03093841 -0.084479906 -0.09752489 0.10077989 -0.026891865 0.065393746 -0.24630806 0.0049938536
0.06227338 0.10109202 0.038442094 -0.06382201 0.037280962 0.008591299 0.045299146 0.065571815
-0.046277467 -0.041051354 -0.20768549 -0.024797978 -0.09425811 0.08016727 0.05193442 0.06664961
-0.1078533 -0.059649117 -0.5956571 -0.013624502 -0.054049686 -0.003776367 -0.009764865 -0.10294102
0.022810457 0.003678874 -0.06660674 0.08177811 0.12635265 -0.034065623 -0.035885315 0.00040010895
-0.09115071 0.17049088 -0.119319275 -0.032984827 -0.020470243 0.08334018 -0.037834596 0.054631904
-0.008059105 0.038510155 0.045769792 -0.08947517 0.13410835 0.028314402 0.08353855 0.068039216
0.0019924608 -0.01185986 -0.025207205 -0.039448917 0.07620698 0.14795558 0.07041481 0.0025700126
-0.029667657 -0.2847015 -0.12625732 -0.0019763135 0.18431152 0.022089817 -0.009558024 0.18173912
-0.09319101 0.045027096 0.04505258 -0.020148687 -0.06336117 -0.17462361 -0.1399162 0.1545664
0.05167033 0.051122252 -0.04935756 -0.0033633162 0.16548708 0.009721961 0.020225331 -0.37499887
-0.085611664 0.060678065 -0.08056657 -0.10969097 -0.18034469 -0.09338019 0.076385185 0.18752396
0.11458379 0.10479196 0.15448147 -0.057343215 -0.07824012 0.02007604 0.033213317 0.13024193
-0.09076586 0.031297464 -0.016075896 0.04698278 -0.01247982 0.07103153 -0.06280093 0.04476
-0.042710073 0.06746854 -0.065119766 0.29266328 0.081581265 0.11347762 0.042507336 0.0514904
-0.115906775 0.15278868 0.0055155125 0.10435239 -0.017965715 0.05078872 -0.0018598227 0.04313049
-0.072373055 0.10104554 0.17520173 0.05932215 -0.0734407 0.00425228 0.25135943 -0.036967665
0.11567122 0.0533591 0.05271531 -0.012841191 0.1540501 -0.08201912 0.104569025 0.08150204
0.16584626 0.014966599 0.066358306 -0.027542217 0.01746767 0.16286775 -0.018223785 0.1380983
0.06374449 0.078997985 0.1047914 0.11944146 -0.0005054951 -0.003486191 0.11495198 0.007094854
0.11001774 -0.09459854 0.070036374 -0.16992146 -0.039019138 0.05922511 0.03959873 -0.074893355
-7.955539e-05 -0.17311312 0.13882595 0.009561727 -0.0056657735 -0.064917855 0.04177259 -0.008842364
0.07877268 0.15774128 -0.025948977 -0.036495965 -0.057084844 0.055057433 0.0559864 -0.021773176
-0.030913144 0.024266502 0.060671628 0.037384763 0.058078725 -0.009243981 -0.014054036 0.1357036
0.1878531 -0.056883465 -0.040260885 0.10458393 -0.109206274 -0.0025392647 -0.064498745 0.00909401
0.10111748 0.040672746 0.18299659 0.17966957 0.03209489 0.09750782 0.20641695 0.002472228
-0.07284515 0.057951957 0.12981588 0.103949755 -0.15588273 -0.07718225 0.057089143 0.121668
0.041931562 0.0033863203 0.053910412 0.14964461 0.053478558 0.17369416 -0.055125643 -0.06391245
00000000: e16e f83d 8cfe e9bd 346f 19be 4095 f73d
00000010: 1b1a 253c ad4f babb e588 a13d bdeb 83be
00000020: 51e1 e83d bad7 08bd 326e ec3c 34c3 82be
00000030: 354e a13d b58c f6bc 694f 14be fc7b b13b
00000040: 5cf0 353e 7adb 6cbe 67af 98bb a150 1ebe
00000050: a226 c2bc 62ae 92bc bc94 ad3d 7009 2bbe
00000060: 9360 133d 2f43 b53c 0785 793d 3971 5d3d
00000070: fa2d 353d bfb0 a63d b4a2 143d c051 19bd
00000080: 8c72 fd3c cd03 adbd 21bb c7bd b065 ce3d
00000090: 544c dcbc 28ed 853d 2e38 7cbe 7ba3 a33b
000000a0: 5f12 7f3d 5509 cf3d 7575 1d3d 1db5 82bd
000000b0: ecb3 183d 85c2 0c3c 998b 393d 844a 863d
000000c0: 718d 3dbd 7725 28bd 81ab 54be 2125 cbbc
000000d0: 650a c1bd bd2e a43d 30b9 543d 977f 883d
000000e0: 31e2 dcbd a252 74bd fc7c 18bf 4e39 5fbc
000000f0: 3463 5dbd ed7c 77bb d0fc 1fbc bed2 d2bd
00000100: ffdc ba3c 4419 713b 1d69 88bd 487b a73d
00000110: 9762 013e 6588 0bbd 7bfc 12bd b7c5 d139
00000120: 39ad babd 2995 2e3e aa5d f4bd 191b 07bd
00000130: 36b1 a7bc 42ae aa3d 73f8 1abd b4c5 5f3d
00000140: 560a 04bc d3bc 1d3d 1b79 3b3d c23e b7bd
00000150: b353 093e 9bf3 e73c 4216 ab3d 2558 8b3d
00000160: f293 023b dc4f 42bc 577f cebc 3095 21bd
00000170: 6812 9c3d ab81 173e a435 903d a86d 283b
00000180: 9609 f3bc 65c4 91be 9949 01be 0a85 01bb
00000190: 29bc 3c3e b4f5 b43c 4299 1cbc d219 3a3e
000001a0: eeda bebd 556e 383d 0e89 383d dc0e a5bc
000001b0: 80c3 81bd 88d0 32be 3146 0fbe a846 1e3e
000001c0: 45a4 533d 9165 513d 272b 4abd 156b 5cbb
000001d0: 7275 293e dc48 1f3c 98af a53c daff bfbe
000001e0: 2b55 afbd 9089 783d 1600 a5bd a9a5 e0bd
000001f0: 47ac 38be 1d3e bfbd d66f 9c3d 4806 403e
00000200: e8aa ea3d 2b9d d63d 6430 1e3e b8e0 6abd
00000210: 5b3c a0bd 8276 a43c b00a 083d 245e 053e
00000220: 74e3 b9bd c531 003d 99b1 83bc 0471 403d
00000230: 2978 4cbc fb78 913d c69d 80bd 4356 373d
00000240: c2f0 2ebd f22c 8a3d 835d 85bd f6d7 953e
00000250: 1414 a73d f466 e83d 2c1c 2e3d 99e7 523d
00000260: 8860 edbd a374 1c3e 79bb b43b b5b6 d53d
00000270: d62c 93bc d507 503d 4bc5 f3ba 99a9 303d
00000280: 5338 94bd f7f0 ce3d 1568 333e c8fb 723d
00000290: 1468 96bd b656 8b3b 2fb2 803e 686b 17bd
000002a0: 08e5 ec3d 128f 5a3d 02ec 573d dc63 52bc
000002b0: 4fbf 1d3e a4f9 a7bd 4928 d63d 8bea a63d
000002c0: 9ad3 293e 7736 753c dde6 873d 37a0 e1bc
000002d0: 5c18 8f3c cec6 263e 0c4a 95bc a469 0d3e
000002e0: 798c 823d b2c9 a13d e09c d63d b99d f43d
000002f0: 3483 04ba 9478 64bb f26b eb3d f37b e83b
00000300: fb50 e13d e1bc c1bd 3b6f 8f3d e4ff 2dbe
00000310: 88d2 1fbd 0796 723d 4732 223d b061 99bd
00000320: fad6 a6b8 9144 31be 6428 0e3e caa8 1c3c
00000330: f4a7 b9bb a7f3 84bd bc19 2b3d 90df 10bc
00000340: 9253 a13d ee86 213e f392 d4bc cb7c 15bd
00000350: ccd1 69bd e783 613d ff51 653d a95d b2bc
00000360: 903d fdbc 8bca c63c d082 783d c420 193d
00000370: f5e3 6d3d 1174 17bc e642 66bc e2f5 0a3e
00000380: 905c 403e a3fe 68bd 99e8 24bd 1930 d63d
00000390: 8aa7 dfbd cb69 26bb eb17 84bd 0bff 143c
000003a0: ae16 cf3d 7798 263d 7563 3b3e 4dfb 373e
000003b0: ee75 033d 2eb2 c73d f75e 533e 1a05 223b
000003c0: d72f 95bd 085f 6d3d 74ee 043e 9ce3 d43d
000003d0: b99f 1fbe ba11 9ebd 4ed6 693d 132d f93d
000003e0: 6ec0 2b3d 07ed 5d3b 2ad1 5c3d 703c 193e
000003f0: 550c 5b3d e2dc 313e 6dcb 61bd 88e4 82bd

module_list.1.subnet.2.bias f4 [128]
0.105176784 0.028641284 -0.06165469 -0.0056780907 0.013450227 0.12100639 0.039316155 0.04100221
-0.008964919 -0.028209785 -0.043579705 0.055657562 0.026498869 0.07759152 -0.008196189 0.055182602
0.12635204 -0.0007016905 -0.035338428 0.111050256 0.08650117 0.14189793 0.005386342 0.04345069
0.07104648 -0.021983199 -0.05583731 -0.067759566 0.069073536 0.08080091 0.015697524 0.04059317
-0.036859915 -0.047077272 0.036297914 0.0018754886 0.05800795 -0.02760068 -0.014602161 -0.06935392
0.021964774 0.031189945 -0.007862941 -0.008078686 -0.046920735 0.09958619 -0.020084685 -0.054832872
0.12961897 0.13499124 0.08337194 0.05840792 -0.058761496 -0.012989395 0.07236376 -0.07664226
-0.0127789695 0.031632673 -0.07383934 0.13210484 0.07464725 0.11617816 0.058965765 -0.008264424
0.011200125 -0.004601542 -0.021122202 0.03157285 0.029767184 0.1474123 0.04329605 -0.07659512
0.06808176 0.069973804 -0.037044358 0.0725902 0.029455896 0.15043107 -0.055757225 -0.021067133
0.114295386 0.085959606 0.029122196 0.048415177 -0.04756602 0.09763169 -0.034839664 0.043569908
0.11545429 -0.040306363 0.04854575 0.100560546 -0.033236805 0.076928146 0.026869312 0.05500148
0.08491491 -0.035295963 -0.05441356 0.03747598 0.0907352 -0.05294887 0.035138194 -0.035043314
0.11290163 -0.009220356 0.026964486 -0.043596312 0.038496476 -0.0032861356 0.064969085 -0.0147015285
0.015139888 0.09135504 -0.027409477 0.08998894 0.07449391 0.10767623 0.006554306 0.005034297
0.11643147 -0.019758618 0.06673366 -0.015322449 0.019517062 0.05571052 0.08084435 -0.014227365
00000000: ed66 d73d 20a1 ea3c a189 7cbd 470f babb
00000010: 575e 5c3c 33d2 f73d fa09 213d eff1 273d
00000020: 98e1 12bc 3518 e7bc a280 32bd 2ff9 633d
00000030: 2814 d93c 4ee8 9e3d 4f49 06bc 2707 623d
00000040: 6e62 013e a7f1 37ba 07bf 10bd 516e e33d
00000050: 8727 b13d b14d 113e e97f b03b 5af9 313d
00000060: d180 913d 1c16 b4bc aab5 64bd 87c5 8abd
00000070: 6d76 8d3d f37a a53d 1898 803c 0645 263d
00000080: 6cfa 16bd 19d4 40bd 1fad 143d f4d2 f53a
00000090: bf99 6d3d d21a e2bc e73d 6fbc 6e09 8ebd
000000a0: 78ef b33c 0e82 ff3c 91d3 00bc 775c 04bc
000000b0: f52f 40bd d8f3 cb3d a388 a4bc 6f98 60bd
000000c0: d6ba 043e 253b 0a3e e8be aa3d 253d 6f3d
000000d0: e5af 70bd 79d1 54bc 7333 943d 9ef6 9cbd
000000e0: e25e 51bc 4391 013d 1439 97bd 7e46 073e
000000f0: a8e0 983d d1ee ed3d 1686 713d 8267 07bc
00000100: bb80 373c 88c8 96bb 7808 adbc 8852 013d
00000110: 4fda f33c 40f3 163e 3357 313d e7dd 9cbd
00000120: 736e 8b3d 6d4e 8f3d d3bb 17bd 2caa 943d
00000130: 7e4d f13c 9a0a 1a3e b061 64bd fb94 acbc
00000140: b313 ea3d 970b b03d ac91 ee3c fe4e 463d
00000150: 96d4 42bd 20f3 c73d 09b4 0ebd 5c76 323d
00000160: 4c73 ec3d 4918 25bd e9d7 463d b0f2 cd3d
00000170: 5123 08bd 818c 9d3d 081d dc3c 3b49 613d
00000180: dee7 ad3d 8092 10bd c1e0 5ebd 6a80 193d
00000190: 60d3 b93d eae0 58bd 11ed 0f3d 9489 0fbd
000001a0: f838 e73d fa10 17bc a0e4 dc3c 0c92 32bd
000001b0: 7bae 1d3d 355c 57bb 830e 853d aede 70bc
000001c0: 4b0d 783c 5a18 bb3d d789 e0bc 1f4c b83d
000001d0: 4390 983d 5b85 dc3d 81c5 d63b bef6 a43b
000001e0: 9f73 ee3d d3dc a1bc a8ab 883d 020b 7bbc
000001f0: 3fe2 9f3c b730 643d b991 a53d e519 69bc
