best_model.pth (torch, 599157 bytes, 72 tensors)

module_list.0.global_scale f4 [1, 6]
0	0x411d2aea	9.822977
1	0x41195642	9.583559
2	0x411c809b	9.781398
3	0x4120fb70	10.061386
4	0x4130a582	11.040407
5	0x411f24d0	9.946487

module_list.0.global_offset f4 [1, 6]
0	0x3d8a270f	0.06745731
1	0x3c60526e	0.013691528
2	0x3b81dfb8	0.003963437
3	0xbc536c81	-0.012904287
4	0xbba26c2d	-0.004956743
5	0x3c2eb240	0.010662615

module_list.0.w_perm f4 [6, 6]
0	0x3da4b034	0.080414206
1	0x3ec5792f	0.38569018
2	0xbe211fff	-0.15734862
3	0xbe341174	-0.17584783
4	0x3f3eef47	0.7458386
5	0xbef70c28	-0.48251462
6	0x3e8d1f76	0.27563065
7	0xbdb8d785	-0.09025482
8	0x3e804bb1	0.25057748
9	0xbca9f652	-0.020747337
10	0x3f0be565	0.54646903
11	0x3f3e8cb5	0.7443345
12	0xbe6b5dad	-0.22984953
13	0xbf4903fc	-0.78521705
14	0xbe0efec0	-0.13964367
15	0xbf013eb3	-0.50486296
16	0x3e4e4693	0.2014411
17	0xbe000d95	-0.12505181
18	0x3e9a9bc5	0.30196968
19	0x3ea0b48e	0.31387752
20	0xbee70c40	-0.45126534
21	0xbf2d7488	-0.6775594
22	0xbe8ed5da	-0.2789753
23	0x3e873627	0.26408502
24	0x3f56cdab	0.83907574
25	0xbe83b525	-0.2572414
26	0x3e99aa21	0.3001261
27	0xbcee31f0	-0.029076546
28	0xbe029005	-0.12750252
29	0xbeb34610	-0.3501439
30	0x3e86f981	0.2636223
31	0xbe7ea49a	-0.24867478
32	0xbf462ba2	-0.7741033
33	0x3f00f9f1	0.5038138
34	0x3dd131b5	0.10214559
35	0x3d9333b4	0.07187596

module_list.0.subnet.0.weight f4 [128, 3]
0	0xbf05d5da	-0.52279437
1	0xbe632f93	-0.22186117
2	0xbe357b0b	-0.17722718
3	0xbef2fe8b	-0.47459826
4	0xbecaaea9	-0.3958638
5	0x3f092265	0.53568107
6	0x3e1576c0	0.14596081
7	0xbf07f378	-0.5310588
8	0xbee17ffe	-0.44042963
9	0x3e2b765d	0.16744371
10	0xbdd087d3	-0.101821564
11	0xbdd16d8b	-0.10225972
12	0x3edf31e4	0.4359275
13	0xbebddca4	-0.37082398
14	0xbeca1b1a	-0.39473802
15	0x3e9c7807	0.30560324
16	0x3d01c312	0.031680174
17	0x3edc460d	0.43022195
18	0x3ea79498	0.32730556
19	0xbeb0dc4f	-0.34543082
20	0x3eb356e6	0.35027236
21	0x3ece5df1	0.40306047
22	0xbe42ab47	-0.1901065
23	0xbece146b	-0.40249953
24	0x3e37a4ef	0.17934011
25	0xbe8bd296	-0.27309102
26	0x3eb986af	0.36235568
27	0xbeba47bc	-0.36382854
28	0xbe5be767	-0.21474992
29	0x3c1559c1	0.009115637
30	0x3f2b6a63	0.6695921
31	0x3e4bfce1	0.19920684
32	0xbf10913a	-0.564716
33	0x3ec204c4	0.3789426
34	0xbd9b17f1	-0.07572926
35	0xbd2f052c	-0.04272954
36	0xbec76a28	-0.38948178
37	0x3e11f2b0	0.14252734
38	0x3e7d84be	0.24757668
39	0x3e7bb505	0.24580772
40	0x3e56d22a	0.20978609
41	0x3e46746b	0.19380347
42	0x3db17de3	0.08666589
43	0x3eb64784	0.35601437
44	0x3e61daf1	0.22056176
45	0xbe3231ab	-0.1740176
46	0xbea5b98b	-0.3236812
47	0x3f00e20e	0.5034493
48	0x3ecb8037	0.39746258
49	0xbe12bcd5	-0.14329846
50	0x3e9ab903	0.30219278
51	0xbeea0e19	-0.4571388
52	0xbe5b4bbf	-0.21415614
53	0xbe8679ff	-0.2626495
54	0x3ed041d3	0.4067522
55	0xbea7519b	-0.32679448
56	0xbefc89fc	-0.49324024
57	0x3ea5c398	0.3237579
58	0xbb2c49f0	-0.0026289187
59	0xbea82beb	-0.32846007
60	0xbef74e64	-0.48301995
61	0xbeb5689c	-0.35431373
62	0x3e57a95c	0.21060699
63	0xbefe284b	-0.49640116
64	0x3ea3c447	0.31985685
65	0xbefb1e02	-0.49046332
66	0x3dd3cb3d	0.10341499
67	0xbec86f24	-0.39147294
68	0x3efcc612	0.49369866
69	0x3d041a46	0.03225162
70	0x3db6965a	0.08915396
71	0xbe63e3e2	-0.22254899
72	0x3d3292de	0.043597095
73	0x3c56e397	0.013115785
74	0x3e971741	0.2950993
75	0x3ccb3cc0	0.024809241
76	0xbe36253e	-0.17787644
77	0x3d148b30	0.036265552
78	0x3e0ec7f7	0.13943468
79	0x3d992007	0.07476812
80	0xbf1962da	-0.5991646
81	0x3e9b6aa1	0.3035479
82	0x3ee87ade	0.4540624
83	0xbef029bc	-0.4690684
84	0xbed1eab0	-0.40999365
85	0x3d39bc26	0.045345448
86	0xbe3ecdbb	-0.18633167
87	0xbe26d951	-0.16293837
88	0xbe91db85	-0.28487793
89	0x3ee45dd4	0.44602835
90	0x3dd389d3	0.10329022
91	0xbe8cf223	-0.27528486
92	0xbf012055	-0.5043996
93	0xbeb83db6	-0.35984582
94	0x3ee082e0	0.4384985
95	0x3ed9084d	0.42389145
96	0xbf0df84d	-0.55457
97	0xbefeaa7f	-0.49739453
98	0x3ede4359	0.43410757
99	0xbcb1fe80	-0.0217278
100	0x3d861d90	0.06548607
101	0xbe8d636f	-0.27614924
102	0x3e1b6bb1	0.151778
103	0xbeb49bfd	-0.3527526
104	0xbefb6869	-0.49103096
105	0x3f0b1313	0.5432598
106	0x3c1b3924	0.009474073
107	0x3eb6ea87	0.35725805
108	0xbe6e7fa0	-0.23290873
109	0x3e8901f8	0.26759315
110	0xbf0d25e2	-0.5513593
111	0xbd2fa1b6	-0.04287883
112	0xbf0d6f5a	-0.55248034
113	0x3ec73f35	0.3891541
114	0x3e369e2f	0.1783378
115	0x3ef5e2c7	0.4802458
116	0x3ee5e62d	0.44902173
117	0xbee37745	-0.44426933
118	0x3c660e84	0.014041547
119	0x3edefa90	0.4355054
120	0x3d2dabb5	0.04240008
121	0x3e3e5d8f	0.18590377
122	0x3ed461f9	0.41480997
123	0x3d984d47	0.074366145
124	0xbeecfca3	-0.46286497
125	0x3c5ee323	0.013603958
126	0xbea513b3	-0.32241592
127	0xbeaa917f	-0.3331413
128	0xbed702c2	-0.41994292
129	0xbd613d7c	-0.054990277
130	0x3f0bd08d	0.546151
131	0x3eaa6b41	0.33284953
132	0xbf06f1fc	-0.5271299
133	0x3dbb4bf5	0.09145347
134	0xbda52478	-0.080635965
135	0x3f1fe151	0.6245318
136	0xbe916f99	-0.28405455
137	0xbd3683b1	-0.044559184
138	0x3ef3177b	0.47478852
139	0x3eb7f3bf	0.3592815
140	0x3e7b9fc1	0.2457266
141	0xbdc3c86f	-0.09559714
142	0xbe7fbd2d	-0.24974509
143	0xbea17520	-0.31534672
144	0x3eaa1f25	0.33226886
145	0xbd59aa14	-0.053140715
146	0xbec24c8c	-0.37949026
147	0xbbb41c29	-0.005496521
148	0x3eaae237	0.33375713
149	0x3e5bf360	0.21479559
150	0x3ea4d769	0.32195595
151	0x3f0317ea	0.51208365
152	0xbea84217	-0.32862923
153	0xbea305be	-0.31840318
154	0x3db1fc2f	0.08690678
155	0xbd580c19	-0.052745912
156	0xbebed3f5	-0.37271085
157	0xbe833b8d	-0.2563137
158	0xbe8a506e	-0.27014488
159	0x3efa6091	0.489018
160	0x3f0ae081	0.54248816
161	0xbee1e2de	-0.44118398
162	0x3e5c2082	0.21496776
163	0xbe72ea9c	-0.23722309
164	0x3efc16f7	0.4923627
165	0xbe3c2a94	-0.18375617
166	0x3ee46af8	0.4461286
167	0x3f2063fa	0.6265255
168	0xba4b5d73	-0.00077577605
169	0x3a70bb48	0.00091831805
170	0x3eb028dc	0.34406173
171	0xbcb34910	-0.021885425
172	0xbd04fafb	-0.032465916
173	0xbf05611e	-0.52101314
174	0xbf2a1fa9	-0.6645456
175	0xbe2e04d6	-0.16994032
176	0xbeda1b13	-0.4259878
177	0x3f264e20	0.6496296
178	0x3b596fef	0.003317829
179	0xbe348520	-0.17628908
180	0xbde4deb4	-0.1117529
181	0x3ecda9d9	0.40168646
182	0xbef9f32e	-0.48818344
183	0x3ef6cd42	0.48203474
184	0xbe49a619	-0.19692267
185	0xbef7b672	-0.48381382
186	0x3e584479	0.2111987
187	0x3ed56940	0.41681862
188	0x3eed116f	0.46302363
189	0xbe450820	-0.1924138
190	0xbd01adcf	-0.031659897
191	0x3ec21300	0.3790512
192	0xbf1e0dff	-0.61740106
193	0xbdb5e521	-0.088815935
194	0xbeb5fc4b	-0.35544047
195	0xbe8e2609	-0.27763394
196	0x3ee5a0b0	0.44849157
197	0x3d8a571f	0.06754898
198	0xbe644659	-0.2229246
199	0x3e94473a	0.28960592
200	0xbe8ea1f9	-0.2785795
201	0xbdf8bc6b	-0.12145313
202	0x3cea2d0c	0.028585933
203	0xbdb6fac7	-0.08934551
204	0x3ef93ca5	0.4867908
205	0xbeed73b7	-0.46377346
206	0xbd35e0a4	-0.044403687
207	0x3f31e94d	0.69496614
208	0x3f173b34	0.5907471
209	0xbeadc03f	-0.33935735
210	0x3d939348	0.07205826
211	0x3eac5ec6	0.33666056
212	0x3e4f177b	0.20223801
213	0xbeebe91d	-0.4607629
214	0x3f105dcf	0.5639314
215	0xbe2e5b28	-0.17026961
216	0xbd1673b6	-0.036731444
217	0xbe72b5fa	-0.23702231
218	0xbf00a0d0	-0.5024538
219	0x3e5546cc	0.20827788
220	0x3ea18a8d	0.31551018
221	0xbec328e7	-0.38117144
222	0x3eba4de0	0.3638754
223	0x3eb32cd9	0.34995154
224	0x3ea5761b	0.3231667
225	0x3eac43b8	0.33645415
226	0xbc3d3f32	-0.0115507115
227	0xbe88bd91	-0.26707128
228	0xbf01abc2	-0.50652707
229	0x3d16a45c	0.03677784
230	0xbe83836c	-0.25686204
231	0x3d742b91	0.05961186
232	0xbde3cb28	-0.11122733
233	0xbf2539f1	-0.64541537
234	0x3f08f4ad	0.53498346
235	0xbe9a0fc0	-0.3009014
236	0x3d3e0dac	0.046399757
237	0xbe9cedb0	-0.3065009
238	0x3ecd6d04	0.40122235
239	0x3e36498a	0.1780149
240	0x3f15febc	0.5859182
241	0xbe9243f7	-0.28567478
242	0x3f077e23	0.52926844
243	0xbe52a9a6	-0.20572528
244	0xbe092cab	-0.13395946
245	0x3e476071	0.19470383
246	0xbf17ff55	-0.5937398
247	0xbf161731	-0.5862914
248	0x3eb1c86a	0.34723216
249	0xbd11525d	-0.03547894
250	0xbe28040b	-0.16407792
251	0x3ebac907	0.36481497
252	0xbe0e843c	-0.13917631
253	0x3ea89878	0.32928824
254	0xbee4b89e	-0.44672102
255	0x3eee31e4	0.4652244

module_list.0.subnet.0.bias f4 [128]
0	0x3f20d4a5	0.6282447
1	0xbef99f79	-0.4875448
2	0x3c8f4b56	0.017491978
3	0xbf12b63f	-0.57309335
4	0xbdcfa09d	-0.101380564
5	0xbdf1c14e	-0.11804448
6	0xbe844c4d	-0.25839463
7	0x3f0a4799	0.540155
8	0xbf0303be	-0.51177585
9	0xbec0ac2f	-0.37631366
10	0xbecb705f	-0.3973417
11	0xbe6d0945	-0.23148067
12	0x3d3522ea	0.04422275
13	0x3f1d7fe9	0.615233
14	0xbd273f70	-0.040831983
15	0xbb47c1a3	-0.0030480407
16	0x3f153ba6	0.5829414
17	0xbe37eafd	-0.17960735
18	0xbd698fd2	-0.057021923
19	0x3ec0ac79	0.37631586
20	0xbe0dfc32	-0.13865736
21	0x3f0ec918	0.55775595
22	0x3e94def8	0.29076362
23	0x3d152089	0.03640798
24	0x3ef9271d	0.48662654
25	0xbefa82e0	-0.48927975
26	0xbf005833	-0.5013458
27	0x3d5f3f0e	0.054503493
28	0x3e51b151	0.20477797
29	0x3da0501b	0.07827779
30	0xbf03afd6	-0.5144018
31	0x3e8819de	0.26582235
32	0x3f1bde5b	0.6088616
33	0xbf00a539	-0.5025211
34	0xbe167021	-0.14691211
35	0xbf0601e3	-0.5234663
36	0xbe9a5100	-0.30139923
37	0xbb7a9231	-0.003823411
38	0x3ec62850	0.3870263
39	0x3da403c7	0.08008533
40	0xbdaafa5e	-0.08348535
41	0x3d2930d2	0.041306324
42	0xbf14bcd3	-0.5810062
43	0x3cfbce3c	0.030737989
44	0xbdd6146c	-0.10453114
45	0x3d8b9289	0.06815059
46	0x3e55fb95	0.20896752
47	0x3e618905	0.22024925
48	0x3ddc05dc	0.10743305
49	0x3ef1950d	0.4718403
50	0x3e521cb3	0.2051876
51	0xbea720e8	-0.32642293
52	0xbd6a0237	-0.05713102
53	0x3e177d4c	0.1479389
54	0xbe834606	-0.2563936
55	0xbee6b08f	-0.4505658
56	0xbe345e5b	-0.17614119
57	0xbe8bc3db	-0.27297863
58	0xbe879730	-0.26482534
59	0xbed876fc	-0.42278278
60	0xbea9cc73	-0.33163795
61	0x3d636d2b	0.055524033
62	0x3f2f2551	0.68416315
63	0x3eef9911	0.46796468
64	0xbd9f2ecf	-0.077726
65	0xbee2b4f8	-0.44278693
66	0xbe79afbe	-0.24383447
67	0x3e2b6f8b	0.16741769
68	0x3f17dfda	0.59325945
69	0x3e9904b1	0.29886392
70	0x3f0acd2f	0.54219335
71	0xbebe2221	-0.37135413
72	0x3f29ba63	0.6630003
73	0xbdc062c7	-0.0939384
74	0x3e308666	0.17238769
75	0xbe2e3434	-0.17012101
76	0x3e9883b6	0.29787987
77	0xbed26d13	-0.41098842
78	0x3f021444	0.5081217
79	0x3d599d90	0.05312878
80	0x3ddc75d0	0.107646585
81	0xbc74a812	-0.014932649
82	0xbeb962f0	-0.36208296
83	0xbeffc7a4	-0.49957
84	0x3f09b0e3	0.5378553
85	0x3ef7089e	0.48248762
86	0xbeb910c0	-0.36145592
87	0xbe93d9b8	-0.28877044
88	0x3f19c7e0	0.6007061
89	0xbef390b7	-0.47571346
90	0xbe9a4a3d	-0.30134764
91	0x3ea15a14	0.31514037
92	0xbea5f361	-0.32412246
93	0xbeae5fbc	-0.34057415
94	0xbf0bf7a2	-0.5467473
95	0xbec67ac9	-0.38765553
96	0x3e596a98	0.21232069
97	0x3ed26f04	0.41100323
98	0x3edf5ac4	0.43623936
99	0xbe86a659	-0.26298788
100	0x3f05f8b9	0.52332646
101	0xbe9116f9	-0.2833784
102	0x3ebaa5bd	0.36454573
103	0xbf0aae90	-0.5417261
104	0x3ea05514	0.3131491
105	0x3ec14bbb	0.3775309
106	0xbd94ba41	-0.072620876
107	0x3df777e7	0.120834164
108	0x3df99f01	0.12188531
109	0x3f265750	0.6497698
110	0x3ce1a298	0.027543351
111	0xbed0fdbd	-0.40818587
112	0x3ee410cd	0.44544068
113	0x3efaedb4	0.49009478
114	0xbe56ae80	-0.20965004
115	0x3f258c3b	0.646671
116	0xbec1159c	-0.377118
117	0x3ecca70e	0.39971203
118	0x3eebd9d0	0.46064615
119	0x3ec6d206	0.3883211
120	0x3e97695a	0.29572564
121	0x3e992295	0.29909196
122	0x39059519	0.00012739412
123	0x3f2fb92b	0.6864192
124	0xbda4bdc1	-0.08044005
125	0xbd0d8fec	-0.034561083
126	0x3f2a34c5	0.6648677
127	0x3d96dabd	0.0736594

module_list.0.subnet.2.weight f4 [128, 128]
0	0x3d218918	0.039437383
1	0x3de5bb74	0.112173945
2	0x3cc96ebc	0.024588935
3	0xbdb8862e	-0.09009968
4	0x3ce91cea	0.02845617
5	0xbca97f51	-0.020690592
6	0xbe2dcbe7	-0.16972314
7	0x3cd0c1e5	0.025483081
8	0xbe0fe776	-0.14053139
9	0x3ec18770	0.37798643
10	0xbdbd3e25	-0.09240369
11	0x3caa3370	0.02077648
12	0x3d995568	0.07486993
13	0x3c0fbe6d	0.008773428
14	0x3de1e96b	0.11030849
15	0x3dbb0760	0.09132266
16	0x3d8bcc08	0.06826025
17	0x3cdfa17c	0.027298681
18	0x3dc556e7	0.09635716
19	0x3b5eb611	0.0033983032
20	0x3d015c43	0.03158213
21	0xbc56519e	-0.0130809825
22	0xbbaf2fe9	-0.0053462875
23	0xbdc428d3	-0.09578099
24	0x3deca22e	0.11554371
25	0xbd510139	-0.051026557
26	0xbe18790f	-0.1488993
27	0xbd86d6e6	-0.065839574
28	0xbd73c4a0	-0.059513688
29	0x3e0ea6ea	0.1393086
30	0xbefe4127	-0.49659082
31	0x3e237b7e	0.15965077
32	0x3d45e18c	0.0483108
33	0x3cd12128	0.025528505
34	0x3d0edaee	0.034876756
35	0xbe070e9f	-0.13189171
36	0xbc647a98	-0.013945244
37	0xbcc0752d	-0.023493374
38	0x3d7e4094	0.062073305
39	0x3ded24f7	0.11579316
40	0x3e144519	0.14479484
41	0xbdab37e9	-0.083602734
42	0xbe099bf0	-0.13438392
43	0x3dff98c8	0.124803126
44	0x3dfb11ba	0.122592404
45	0x3c2bc6db	0.010484423
46	0x3d89fbf4	0.06737509
47	0x3e105ded	0.1409833
48	0x3d524a1f	0.05134022
49	0x3cea26ed	0.028583014
50	0x3e0a91b0	0.13532138
51	0x3d5df4e0	0.05418861
52	0x3e0ec80f	0.13943504
53	0x3db1f62e	0.08689533
54	0xbe16a20f	-0.14710258
55	0x3e0d0488	0.1377126
56	0x3dd19c5c	0.10234901
57	0xbecbe3d5	-0.3982226
58	0x3d3a68fa	0.04551027
59	0xbe9648af	-0.29352328
60	0x3d6020ad	0.054718662
61	0x3dfaf4e9	0.12253744
62	0x3a38cdbb	0.0007049699
63	0x3dfde9f7	0.12398141
64	0x3dd3f694	0.103497654
65	0xbd04d0a4	-0.032425538
66	0x3d85f0d6	0.065400764
67	0x3d0fcf36	0.03510972
68	0x3da5100e	0.08059703
69	0xbd4f7226	-0.05064597
70	0x3d7138c3	0.058892023
71	0x3d8f619c	0.070010394
72	0x3c97ffe4	0.018554635
73	0xbd53f459	-0.0517467
74	0xbd407681	-0.046988014
75	0x3d1d07c0	0.03833747
76	0x3c7ad308	0.015309103
77	0xbf10c108	-0.5654454
78	0xbcfa1f06	-0.030532371
79	0x3caf9a07	0.02143575
80	0x3d03c2f1	0.032168332
81	0x3d92c04c	0.07165584
82	0x3e2ff1ae	0.17182037
83	0xbe134972	-0.14383486
84	0xbdfddc15	-0.12395493
85	0x3c477797	0.012174509
86	0xbd16f453	-0.0368541
87	0x3dd7dffd	0.10540769
88	0x3cec2aae	0.028828945
89	0xbe92d0d8	-0.2867496
90	0x3d645551	0.055745427
91	0x3cb9b555	0.022669474
92	0xbf6540f9	-0.89552265
93	0xbe830116	-0.25586766
94	0x3e3fd2b3	0.18732719
95	0x3d7a1d2f	0.061062988
96	0xbc2fed98	-0.010737799
97	0x3e366980	0.17813683
98	0x3db52502	0.08844949
99	0xbd627d11	-0.055295054
100	0x3c84f073	0.016227936
101	0x3ccdd6a5	0.025126765
102	0x3da93c39	0.0826344
103	0xbd3207ba	-0.0434644
104	0x3c19c93c	0.009386357
105	0xbde700a0	-0.11279416
106	0x3d946974	0.07246676
107	0x3e187ba2	0.14890912
108	0xbd634426	-0.055484913
109	0xbd6cddf0	-0.057828844
110	0x3d7afc9b	0.06127606
111	0x3de1cf21	0.11025835
112	0xbccb77f4	-0.024837472
113	0x3c68f40c	0.014218342
114	0x3d99e8b8	0.07515091
115	0x3dfeb612	0.12437071
116	0xbdb7233a	-0.08942266
117	0x3e255d7e	0.16148946
118	0x3c336e59	0.010951602
119	0x3dff5ee8	0.12469274
120	0xbdb39869	-0.08769304
121	0x3dfaaa40	0.12239504
122	0xbddba38c	-0.107245535
123	0x3dd77d1f	0.10521912
124	0xbcb4724f	-0.022027163
125	0x3dd8d868	0.10588151
126	0xbca495a4	-0.020090885
127	0xbbdd3ea2	-0.006751851
128	0xbd15459c	-0.036443338
129	0xbd15026c	-0.036379263
130	0xbc326386	-0.010887986
131	0xbd1d47bd	-0.038398493
132	0x3bceba65	0.006308841
133	0xbbeb3d33	-0.0071789264
134	0xbd8ee6fb	-0.0697765
135	0xbd8d5887	-0.06901651
136	0xbdc7448c	-0.09729871
137	0xbc53839c	-0.012909796
138	0xbc37a614	-0.01120903
139	0x3ca14ff4	0.019691445
140	0x3d99d012	0.075103894
141	0x3d7f8bc0	0.062389135
142	0x3cc8ee9b	0.024527838
143	0x3d974080	0.07385349
144	0xbd3a26a7	-0.045447018
145	0x3d36d2c7	0.044634607
146	0xbc9fca78	-0.019505724
147	0x3d20f0c8	0.039292127
148	0xbced426e	-0.02896234
149	0xbd64d682	-0.055868633
150	0xbd13e0f8	-0.03610322
151	0x3d06e8d6	0.032936893
152	0xbdb96a44	-0.09053472
153	0x3d8cf171	0.06881989
154	0xbe031e62	-0.12804559
155	0x3c9d48e7	0.019199802
156	0x3a851122	0.0010152201
157	0x3d87d594	0.06632534
158	0xbe2d0876	-0.16897759
159	0x3cfbe3e2	0.030748311
160	0x3d08380e	0.033256583
161	0x3d7c3c7e	0.061581127
162	0x3d0e8417	0.03479394
163	0x3c1cfefd	0.009582278
164	0xbc8d771e	-0.017268714
165	0x3cfe6450	0.031053692
166	0x3c82bbc3	0.015958672
167	0xbd8f7e52	-0.070065156
168	0xbd765ef0	-0.060149133
169	0x3c290580	0.010316253
170	0xbd8ba428	-0.0681842
171	0x3c83c388	0.016084448
172	0x3c4396b8	0.01193779
173	0xbd7175cd	-0.058950234
174	0xbd4bed0c	-0.049786612
175	0x3d7ef9f8	0.062250108
176	0xbd9fedca	-0.078090265
177	0x3d28e06f	0.04122966
178	0x3c197a37	0.009367517
179	0xbcc50324	-0.02404935
180	0x3d90997d	0.070605256
181	0x3c490f85	0.012271767
182	0x3d843ffe	0.06457518
183	0x3d43dfae	0.04782074
184	0x3d59be61	0.053160075
185	0xbd819df9	-0.06328959
186	0xbcb42ed0	-0.021994978
187	0xbd46274c	-0.04837732
188	0xbd405fe4	-0.04696645
189	0xbd8b9f09	-0.06817443
190	0xbcbfb994	-0.02340392
191	0x3d859fc6	0.06524615
192	0x3dc116e1	0.09428192
193	0xbd9a0127	-0.07519751
194	0x3da45137	0.08023303
195	0xbbf49957	-0.0074645686
196	0xbd4ab483	-0.049488556
197	0x3be6d89c	0.007044865
198	0x3d8100ff	0.06299018
199	0xbc46b866	-0.012128925
200	0x3dc1c33e	0.094610676
201	0xbdb503d4	-0.08838621
202	0xbc23e49f	-0.010003238
203	0x3d0c985f	0.034325
204	0xbd119b60	-0.035548568
205	0xbe2f958b	-0.1714689
206	0x3d37bbd9	0.04485688
207	0x3d847c7e	0.064690575
208	0x3d6a0fbd	0.057143915
209	0xbd091f0d	-0.033476878
210	0xbda4fc05	-0.080558814
211	0x3c762a96	0.015024802
212	0x3d0dfd68	0.034665495
213	0x3d4ebcf9	0.050473187
214	0xbdcc94b4	-0.099893
215	0xbcdc3ac4	-0.02688349
216	0x3da7ca83	0.08192923
217	0xbc83eff0	-0.016105622
218	0xbdee0586	-0.11622147
219	0x3d86710e	0.06564532
220	0xbd98090b	-0.074236
221	0xbb5d3d74	-0.0033758553
222	0xbd53939f	-0.051654454
223	0x3c00baa7	0.007857001
224	0x3819f0b1	3.6702204e-05
225	0xbd2c1a50	-0.04201728
226	0x3d8db1e2	0.06918694
227	0x3ccc6d83	0.024954563
228	0xbb314b8f	-0.0027053093
229	0xbd97e771	-0.07417191
230	0xbc72df6a	-0.014823774
231	0x3ccec8ec	0.025242291
232	0xbcf5e33a	-0.030015577
233	0xbdced9df	-0.10100149
234	0x3d653ebc	0.05596803
235	0x3cbe4182	0.023224596
236	0x3ccf07db	0.0252723
237	0x3d88a408	0.066719115
238	0xbc24c581	-0.010056854
239	0xbc8d4815	-0.017246285
240	0x3d14a874	0.036293462
241	0x3d6950c6	0.056961797
242	0xbc4b8ec7	-0.0124241775
243	0x3a383b8d	0.0007027917
244	0x3d397779	0.045279954
245	0x3d4dd946	0.050256036
246	0xbcf042c8	-0.029328719
247	0x3d5c485c	0.053779945
248	0x3dad3722	0.084577814
249	0xbd696467	-0.056980517
250	0xbdb9c1b2	-0.090701476
251	0xbcd2dbdf	-0.025739608
252	0xbce46402	-0.027879719
253	0x3d20e9d1	0.039285485
254	0xbcce68e3	-0.025196498
255	0xbd95dce5	-0.07317523

module_list.0.subnet.2.bias f4 [128]
0	0x3dd2348a	0.10263927
1	0x3cdacbb4	0.026708461
2	0x3d971f2e	0.07378994
3	0x3d01597c	0.03157948
4	0x3d574335	0.052554328
5	0x3d824aa4	0.06361893
6	0xbd9a82a0	-0.07544446
7	0xbc36a5f8	-0.0111479685
8	0xbcecff58	-0.028930351
9	0x3d06de6f	0.032926973
10	0x3df1c5f4	0.11805335
11	0x3bd504dc	0.0065008234
12	0x3b5509fe	0.0032507177
13	0x3d6a22a0	0.057161927
14	0x3d8f3660	0.06992793
15	0xbd775b8c	-0.06039004
16	0x3e04bf22	0.12963536
17	0x3c1b05d3	0.009461838
18	0x3d6218d3	0.055199455
19	0x3e1a9f0b	0.15099733
20	0x3d54b47f	0.051929947
21	0x3d88b3b3	0.066749
22	0x3cd96eca	0.026542086
23	0x3c4ee1b8	0.012627058
24	0x3d821ad6	0.06352775
25	0xbdd489f8	-0.10377878
26	0x3e12cdc0	0.143363
27	0xbda67f0a	-0.081296995
28	0x3d669456	0.056293808
29	0x3d15590c	0.036461875
30	0x3bc280f6	0.0059357835
31	0xbd9e4880	-0.07728672
32	0x3be7efba	0.007078138
33	0x3df4353c	0.11924216
34	0x3d6c73df	0.05772769
35	0x3da386ae	0.079846725
36	0x3e176688	0.14785206
37	0xbb9f3924	-0.0048591066
38	0x3d1597e3	0.036521804
39	0x3c85d96a	0.016339023
40	0x3bc827f0	0.0061082765
41	0x3c911edc	0.01771491
42	0x3bcd8817	0.0062723267
43	0x3d0f844d	0.03503828
44	0x3d4570ff	0.048203465
45	0x3d41dc89	0.04732946
46	0x3da998b3	0.08281078
47	0xbc19e4d9	-0.00939294
48	0x3dc5e87f	0.09663486
49	0x3ce9cbb4	0.028539516
50	0x3e015432	0.12629774
51	0xbd8841bf	-0.06653165
52	0xbd314902	-0.043282516
53	0xbd6cc11f	-0.057801362
54	0xbdcc255c	-0.09968063
55	0xbcb08d74	-0.021551825
56	0xbc8e301e	-0.017356928
57	0xbcbc70b0	-0.023002952
58	0x3e01ca6a	0.12674871
59	0xbcd7604d	-0.026291037
60	0x3d061059	0.032730434
61	0xbd7adc94	-0.061245516
62	0xbc83ab00	-0.01607275
63	0x3d4345bc	0.047673926
64	0x3e109c1f	0.14122055
65	0x3d8a2587	0.06745439
66	0x3df32055	0.11871401
67	0xbd043736	-0.032279216
68	0x3daad079	0.08340544
69	0x3cfae821	0.030628266
70	0x3c0df4d6	0.0086643305
71	0x3d5911fc	0.052995667
72	0x3e528350	0.20557904
73	0x3d763c68	0.0601162
74	0xbd8cdda5	-0.06878213
75	0x3d6269a4	0.055276528
76	0xbc9a7819	-0.018856095
77	0x3c8f7f0d	0.017516637
78	0x3dcb3eee	0.09924112
79	0xbcc2a2a2	-0.02375919
80	0x3c8a83a3	0.016908472
81	0xbd79d83a	-0.060997225
82	0x3cd20085	0.025635013
83	0xbcc00228	-0.023438528
84	0x3be903f4	0.007111067
85	0xbd911a70	-0.07085121
86	0x3d98f7a4	0.07469109
87	0x3d7a146e	0.06105464
88	0x3d122b0d	0.035685588
89	0xbc8df395	-0.017328063
90	0x3df0e71e	0.11762832
91	0x3d40bc8c	0.047054812
92	0x3d964a3a	0.07338376
93	0x3e177388	0.14790165
94	0xbc35fd8b	-0.011107813
95	0xbda11f1d	-0.078672625
96	0xbd028625	-0.03186621
97	0x3cf46a52	0.029835854
98	0x3d4fe3a5	0.050754208
99	0x3d0952d9	0.033526275
100	0x3d70f94a	0.05883149
101	0x3cd760ca	0.02629127
102	0x3d78b090	0.060715258
103	0x3dc0039d	0.09375689
104	0x3e057a78	0.13035
105	0xbd9ec484	-0.07752326
106	0x3cc41e52	0.02394024
107	0xbcd0c0c9	-0.025482552
108	0x3e08670c	0.1332056
109	0x3ce71d27	0.028212143
110	0x3d8c220c	0.068424314
111	0x3d6a2412	0.057163306
112	0x3cc3d1a4	0.023903675
113	0x3c472e66	0.012157058
114	0x3de1163b	0.10990568
115	0x3dcbf93d	0.09959648
116	0xbceac265	-0.028657148
117	0xbc5c054d	-0.013428998
118	0x3da24c7a	0.07924743
119	0xbbe0e79f	-0.006863549
120	0x3d635de3	0.05550946
121	0xbdbf8091	-0.09350694
122	0x3c2c05e2	0.010499449
123	0x3d418a05	0.047250766
124	0x3e2131dc	0.15741676
125	0xbd9c71c1	-0.07638884
126	0xbc35a366	-0.0110863205
127	0x3cc5d77d	0.024150604

module_list.0.subnet.4.weight f4 [6, 128]
0	0xbb822ad8	-0.0039723925
1	0xbd157785	-0.036490936
2	0x3e87e135	0.26539007
3	0xbd13602e	-0.035980396
4	0xbd1a37c4	-0.03765084
5	0xbeb2524f	-0.3482842
6	0x3da3dce2	0.080011144
7	0xbe18a93e	-0.14908311
8	0xbccda16c	-0.025101386
9	0x3d36455b	0.044499736
10	0xbead2980	-0.33820724
11	0xbce191ac	-0.027535282
12	0x3bb5c134	0.0055467132
13	0xbcf1421d	-0.02945047
14	0x3cbeef86	0.023307573
15	0xbe9dea98	-0.30843043
16	0xbd80e0e8	-0.062928975
17	0xbd3c831f	-0.046023484
18	0xbdfb08f2	-0.122575656
19	0x3c9822e4	0.018571325
20	0x3d7f0bd0	0.062267125
21	0x3e611bcc	0.2198326
22	0x3daf3012	0.085540906
23	0xbdf15776	-0.1178426
24	0x3d231c65	0.039822
25	0xbca7ca02	-0.020482067
26	0xbda725c8	-0.08161503
27	0x3d3589bb	0.044320803
28	0xbd053f1f	-0.0325309
29	0xbd4f44eb	-0.050602835
30	0x3d7b9a89	0.061426673
31	0xbd97cc7a	-0.07412048
32	0xbb61f80c	-0.0034480123
33	0xbcace93c	-0.021107309
34	0xbe31af88	-0.17352116
35	0x3d365ca0	0.044521928
36	0xbc887b5d	-0.016660387
37	0x3da5960c	0.0808526
38	0xbd276f60	-0.0408777
39	0xbdb260a7	-0.08709841
40	0xbe873dbf	-0.26414296
41	0xbc92d866	-0.017925452
42	0xbc0935ea	-0.0083746705
43	0x39e0b706	0.00042860972
44	0x3d3c07dc	0.045905933
45	0x3bceb869	0.0063086045
46	0x3d86fc19	0.065910526
47	0x3d0eb8df	0.034844276
48	0x3d9fa83e	0.077957615
49	0xbc61fddd	-0.013793436
50	0x3ce3e8af	0.027820913
51	0xbd38c688	-0.04511121
52	0x3e3746e4	0.17898136
53	0xbc84be79	-0.016204106
54	0x3d6857bb	0.05672429
55	0x3db07445	0.08615927
56	0x3d96412e	0.07336651
57	0xbdd97290	-0.10617554
58	0xbdec631b	-0.1154234
59	0x3da1bacd	0.078969575
60	0x3b4c614d	0.0031185925
61	0xbc92f5a9	-0.017939406
62	0xbbb3e822	-0.005490319
63	0x3c578d61	0.013156266
64	0xbcb91783	-0.02259422
65	0xbdc44472	-0.095833674
66	0xbc71106f	-0.014713391
67	0xbc829b4c	-0.015943192
68	0xbcc53335	-0.024072269
69	0x3b9269f5	0.0044681975
70	0x3ca7b7cc	0.020473383
71	0xbd8b15ab	-0.06791242
72	0xbe97e62d	-0.29667798
73	0x3d1e7cb5	0.03869315
74	0xbd0f5397	-0.034991827
75	0x3b6aaad1	0.003580738
76	0xbdb44ff4	-0.08804312
77	0xbd8867fa	-0.06660457
78	0xbd497d07	-0.0491915
79	0x3b3816fb	0.002808987
80	0xbde0f3a9	-0.109839745
81	0x3d09be5e	0.033628814
82	0x3c309705	0.010778193
83	0x3df52668	0.11970216
84	0x3ba2c80d	0.0049676956
85	0x3e0caddb	0.13738196
86	0xbdc0357c	-0.09385201
87	0x3e460968	0.19339526
88	0x3d08b2d4	0.03337367
89	0x3d0b1d28	0.033963352
90	0x3cb1ca1c	0.021702819
91	0x3ce76b0c	0.028249286
92	0xbee3c462	-0.44485766
93	0xbd1d712c	-0.038438007
94	0xbd3ce2fe	-0.046114914
95	0x3cce7130	0.025200456
96	0xbaa8fda6	-0.0012892976
97	0xbcb8efc8	-0.022575274
98	0xbc84a854	-0.016193546
99	0x3d02e3ed	0.03195565
100	0x3da2783e	0.079330906
101	0xbebdb273	-0.37050208
102	0x3d01f22d	0.031725097
103	0xbd8ddd7e	-0.06927012
104	0xbc98088f	-0.018558769
105	0x3d93ddec	0.072200626
106	0xbda083da	-0.07837649
107	0xbd1ae71b	-0.037818056
108	0xbd89e346	-0.06732802
109	0xbda18fe7	-0.07888775
110	0xbe8ec7ee	-0.2788691
111	0xbd6a9cf2	-0.05727858
112	0x3db0b370	0.08627975
113	0xbd1b134d	-0.037860204
114	0xbc024733	-0.0079515455
115	0xbe1e29bb	-0.15445606
116	0x3ea9fb26	0.33199424
117	0xbc49bffd	-0.01231384
118	0xbdf2991c	-0.118456095
119	0x3d08a690	0.03336197
120	0xbd936b6b	-0.07198223
121	0x3d222505	0.039586086
122	0xbe39b5c1	-0.1813574
123	0xbc4ba309	-0.012429007
124	0xbc35adf6	-0.011088839
125	0xbd956153	-0.07293954
126	0x3b3d3199	0.0028868674
127	0xbd26d23d	-0.040727843
128	0x3fa496fc	1.2858577
129	0x3eb41614	0.35173094
130	0x3f246ea6	0.64231336
131	0x3fda6dde	1.7064779
132	0x3f83d05a	1.0297959
133	0x3fcddeb2	1.6083586
134	0xbd104ca2	-0.035229333
135	0x3f88fb32	1.0701659
136	0x3f646962	0.892233
137	0x3f50dac7	0.8158383
138	0x3f6f5fc7	0.9350552
139	0x3f88d0c9	1.0688716
140	0x3f7497f3	0.95544356
141	0xbd72a112	-0.05923564
142	0x3f90524d	1.1275116
143	0x3ce64a6a	0.028111655
144	0x3f600de7	0.87521213
145	0x3f6a1a55	0.9144643
146	0x3f72c6bd	0.948345
147	0x3f5dc9d0	0.86636066
148	0x3f55225d	0.8325556
149	0x3e8bd9e9	0.2731469
150	0x3f3d1ce7	0.73872226
151	0x3f93e180	1.1553192
152	0x3f424056	0.7587942
153	0xbc16aa40	-0.009195864
154	0x3f6add55	0.91743976
155	0xbd7ec1a3	-0.062196385
156	0x3f5073d3	0.81426734
157	0x3f3e0750	0.7422991
158	0x3f857a48	1.0427942
159	0xbcf70df2	-0.030158017
160	0x3f4aa71a	0.79161227
161	0x3f6ec6a3	0.93271846
162	0x3f025d56	0.5092367
163	0x3f48128c	0.781533
164	0x3f835639	1.0260688
165	0xbcedb83c	-0.029018514
166	0x3f91fd4e	1.1405427
167	0xbd383777	-0.04497477
168	0x3f150bf2	0.5822135
169	0x3f86c933	1.0530151
170	0xbd010e65	-0.03150787
171	0x3f08f81a	0.5350357
172	0x3f47d81b	0.78064126
173	0x3f7209be	0.94546115
174	0x3f30c518	0.6905074
175	0x3f36b1d6	0.71365106
176	0x3f37689a	0.71643984
177	0x3f3daad8	0.7408881
178	0x3f31f847	0.69519466
179	0xbcbc0ab2	-0.022954319
180	0x3ed9fb65	0.4257461
181	0xbd4f97a6	-0.050681733
182	0x3cea325d	0.028588468
183	0xbd89f6cc	-0.06736526
184	0x3f3adc5f	0.7299251
185	0x3f87254b	1.0558256
186	0x3f5de927	0.8668389
187	0x3f21852a	0.6309382
188	0x3f603605	0.8758243
189	0xbd6663f4	-0.056247666
190	0x3f3893d6	0.7210058
191	0x3f8e8116	1.1133144
192	0x3f9d6069	1.2295047
193	0x3f8f19c1	1.1179734
194	0x3f8e0936	1.1096561
195	0x3ca51cf8	0.020155415
196	0x3f5d084f	0.863408
197	0x3f3f4661	0.74716765
198	0x3f18cac1	0.5968438
199	0x3f873532	1.0563109
200	0x400807f4	2.1254854
201	0x3f5ad816	0.8548597
202	0xbda61ce4	-0.08110979
203	0x3f6c324c	0.92264247
204	0xbd69ac98	-0.057049364
205	0x3f692467	0.9107117
206	0x3f63d121	0.8899098
207	0xbd836f80	-0.06417751
208	0x3f5e238e	0.86773
209	0x3f316307	0.6929173
210	0x3f65e732	0.898059
211	0x3f526724	0.8218863
212	0xbd7ef304	-0.062243477
213	0x3e49ef34	0.19720155
214	0x3f89ace9	1.0755893
215	0x3f7a9a1f	0.9789142
216	0x3f32ce5f	0.6984615
217	0x3f036579	0.5132671
218	0x3f6d7f3d	0.92772275
219	0xbd6ac43e	-0.057316057
220	0x4039396e	2.8941302
221	0x3f94fa1e	1.163883
222	0x3e91d07e	0.2847938
223	0xba94a200	-0.0011339784
224	0x3e962af4	0.29329646
225	0x3f8ddb96	1.1082637
226	0x3f8a951e	1.0826757
227	0x3d81a054	0.06329408
228	0x3fa3d679	1.2799827
229	0x3f36d591	0.71419626
230	0x3f5b70d4	0.8571904
231	0x3f82cfc2	1.0219653
232	0x3f3d6e1c	0.7399614
233	0xbdae3b11	-0.0850736
234	0x3f659bbe	0.8969077
235	0xbd8933d8	-0.066993415
236	0x3f5fe690	0.87461185
237	0x3f8a166a	1.078809
238	0x3f89a1dd	1.0752522
239	0x3f52148e	0.82062614
240	0x3f37802f	0.7167997
241	0xbda5c150	-0.08093512
242	0x3f30c766	0.6905426
243	0x3f10c169	0.5654512
244	0x3eb134eb	0.34610686
245	0x3f3f08b1	0.7462264
246	0x3f550862	0.83215916
247	0x3f366091	0.712411
248	0x3f6e6318	0.93119955
249	0x3d8f10d6	0.06985633
250	0x3f2e7163	0.68141764
251	0x3f703e76	0.9384531
252	0x3f9202a9	1.1407062
253	0xbd5e88dd	-0.05432974
254	0x3e2870dc	0.16449302
255	0xbcda9c27	-0.026685787

module_list.0.subnet.4.bias f4 [6]
0	0xbe665bbc	-0.22495931
1	0x3efbb9b0	0.49165106
2	0xbdfb45ea	-0.122691944
3	0x3d7fbbf9	0.062435124
4	0x3a31d4a8	0.00067837024
5	0xbd8a17b4	-0.06742802

module_list.1.global_scale f4 [1, 6]
0	0x4122b58a	10.169321
1	0x4121cafa	10.112055
2	0x411ed6f6	9.927481
3	0x41217766	10.09165
4	0x411fb697	9.982078
5	0x411f6f6b	9.964702

module_list.1.global_offset f4 [1, 6]
0	0x39f9a12a	0.00047613058
1	0xbc6d7f2e	-0.014495654
2	0xbbefa8bb	-0.0073138154
3	0x3c978d13	0.018499887
4	0xbc73f90f	-0.014890923
5	0x3bc65a56	0.0060532494

module_list.1.w_perm f4 [6, 6]
0	0x3e978550	0.29593897
1	0x3eb90fbb	0.36144814
2	0x3ecce3fb	0.40017685
3	0x3e8b9ec6	0.27269572
4	0x3b4aa57a	0.0030921386
5	0x3f3d61a4	0.7397711
6	0xbdcbe61d	-0.09956
7	0xbee65b14	-0.44991362
8	0xbeaba60c	-0.3352512
9	0x3f492623	0.78573817
10	0x3e40277c	0.18765062
11	0x3e1a322c	0.15058202
12	0xbe05becb	-0.13061063
13	0xbf251601	-0.644867
14	0x3e58b148	0.21161377
15	0xbeecd7c8	-0.46258378
16	0x3eb8dabb	0.36104378
17	0x3ed7fec7	0.42186567
18	0xbe8e8416	-0.2783515
19	0xbe6b0cda	-0.22954121
20	0x3f4b509c	0.79419875
21	0x3e943446	0.2894613
22	0xbe76c0fb	-0.24097054
23	0xbe9fa573	-0.31180915
24	0xbf4357a0	-0.7630558
25	0x3ee0dd55	0.43918863
26	0x3c6f5294	0.0146070905
27	0x3d151d62	0.036404975
28	0x3eef7b5b	0.467738
29	0x3d8a04ee	0.067392215
30	0x3ef33fa2	0.47509485
31	0x3d97ef49	0.07418687
32	0x3e68e0b2	0.22741964
33	0x3dc3f682	0.09568502
34	0x3f3f288c	0.74671245
35	0xbec6832c	-0.3877195

module_list.1.subnet.0.weight f4 [128, 3]
0	0x3f09e27d	0.5386122
1	0x3e5d8cab	0.21635692
2	0xbd8eda57	-0.06975239
3	0xbe2c575e	-0.16830203
4	0xbe90af6c	-0.28258836
5	0xbe9b13d9	-0.3028858
6	0xbe1574cd	-0.14595337
7	0x3eed161e	0.46305937
8	0x3d939f12	0.07208075
9	0xbd32bd9d	-0.04363786
10	0xbe35e2a5	-0.1776224
11	0x3e6e3f96	0.23266444
12	0xbf3e27b6	-0.74279344
13	0x3e623b1c	0.22092861
14	0xbe3ade6b	-0.18248908
15	0x3eee6b93	0.46566448
16	0x3e50999e	0.203711
17	0xbe91ad44	-0.28452504
18	0x3ea835f4	0.32853663
19	0x3edd14d0	0.4317994
20	0xbf03e5a8	-0.515223
21	0xbc7d2264	-0.015450094
22	0x3dcfd461	0.1014793
23	0x3e0116de	0.1260638
24	0xbefccdf8	-0.49375892
25	0x3f11668e	0.5679711
26	0xbe358242	-0.1772547
27	0x3e642a0d	0.22281666
28	0x3f1ad99d	0.604883
29	0xbeb3652c	-0.35038126
30	0x3f2dc87d	0.67884046
31	0x3e02af31	0.12762143
32	0x3f07a68f	0.52988523
33	0x3ed99dee	0.42503303
34	0x3ec94de0	0.39317226
35	0xbeacac7f	-0.33725354
36	0x3f2c0f06	0.67210424
37	0xbda05532	-0.0782875
38	0xbcce27d5	-0.025165478
39	0xbe79f80f	-0.24411033
40	0x3ed4590e	0.41474193
41	0x3c2a6189	0.010399231
42	0x3f1213c9	0.5706144
43	0xbd9c3f80	-0.07629299
44	0x3ef0e8c6	0.47052592
45	0xbea38ff0	-0.31945753
46	0x3e73dda3	0.23815016
47	0xbe8b38b2	-0.27191693
48	0x3d832cac	0.06405005
49	0x3f039b9f	0.51409334
50	0x3e94289b	0.2893723
51	0xbde9b4dc	-0.11411449
52	0xbd4f1a1a	-0.050562
53	0x3dd115f1	0.10209263
54	0x3f009ace	0.50236213
55	0x3ea8496e	0.32868522
56	0xbdad3676	-0.08457653
57	0x3f1cc811	0.6124278
58	0x3e4828a3	0.19546752
59	0xbe33061e	-0.17482802
60	0x3e991592	0.2989927
61	0x3e0b96d5	0.13631757
62	0xbe99e079	-0.30054072
63	0x3f0d69f2	0.55239785
64	0x3f124015	0.5712903
65	0x3e26a3c5	0.1627341
66	0xbef878f8	-0.48529792
67	0x3de0b6a2	0.109723344
68	0xbd749197	-0.059709158
69	0x3e79e49e	0.24403617
70	0xbec39705	-0.38201156
71	0x3ee7b805	0.45257583
72	0xbd85b1fa	-0.06528087
73	0xbed40e89	-0.4141734
74	0x3ec85880	0.3913002
75	0x3f1cc6ff	0.61241144
76	0x3e91c671	0.2847171
77	0xbefc407c	-0.49267948
78	0x3d4f84ca	0.050663747
79	0xbeaf658c	-0.34257162
80	0xbe50135d	-0.20319887
81	0xbedce3f7	-0.43142673
82	0xbe207f56	-0.15673575
83	0xbdb6f314	-0.08933082
84	0x3ef82132	0.48462826
85	0x3f1a63a5	0.60308295
86	0xbedbb0ee	-0.42908424
87	0x3d1dce6d	0.03852694
88	0x3e60bf01	0.21947862
89	0xbe67a9b3	-0.22623329
90	0xbf2e2fc7	-0.6804165
91	0xbf173dc3	-0.59078616
92	0x3ebfc5ea	0.37455684
93	0x3f32362b	0.69613904
94	0x3d7c5c42	0.06161142
95	0xbcb10d82	-0.021612886
96	0x3ed55da1	0.41672996
97	0x3e4a2048	0.19738877
98	0xbeac68cc	-0.33673704
99	0xbf2b6222	-0.66946614
100	0xbeab3140	-0.33436012
101	0xbd7454f4	-0.05965133
102	0xbe3ccf81	-0.18438531
103	0xbe76ba6a	-0.24094549
104	0xbe51b71d	-0.20480008
105	0x3e823a1d	0.25434962
106	0xbe801195	-0.25013414
107	0x3e33c140	0.17554188
108	0x3f23c071	0.6396552
109	0xbf031910	-0.5121012
110	0x3e1a86e3	0.15090518
111	0xbf161254	-0.58621716
112	0xbf07309c	-0.5280855
113	0xbe709cf2	-0.2349737
114	0xbed7122d	-0.42006055
115	0xbe70199b	-0.23447268
116	0xbe16fcc7	-0.14744864
117	0xbed1e5a2	-0.40995508
118	0xbf0ff535	-0.5623353
119	0xbe9320bd	-0.28735915
120	0x3e55c9b5	0.20877726
121	0xba869650	-0.0010268185
122	0xbf0e635a	-0.5562035
123	0x3e0f1f29	0.1397673
124	0xbebb59d3	-0.36591968
125	0xbea26904	-0.31720746
126	0x3e92a3a5	0.28640476
127	0x3e7166e6	0.23574409
128	0xbeb33a8a	-0.350056
129	0xbe85dff3	-0.26147422
130	0xbf0e23d2	-0.5552341
131	0x3e4e94ae	0.20173904
132	0x3eec2f8b	0.46130022
133	0x3c26a405	0.010170941
134	0xbe24bca2	-0.16087583
135	0xbdd9a06e	-0.10626303
136	0xbf088e07	-0.53341717
137	0x3ec7ee76	0.3904912
138	0x3eb02c92	0.34409004
139	0x3e3537ee	0.17697117
140	0x3e55a6b8	0.2086438
141	0xbf2531d9	-0.64529186
142	0x3e1cbc0c	0.15306109
143	0x3dfe203c	0.12408492
144	0xbe80082e	-0.2500624
145	0xbdb364ed	-0.087594844
146	0xbe8b1bd6	-0.27169675
147	0x3edfc02c	0.43701303
148	0x3f0089a4	0.5021002
149	0x3e89e6b1	0.26933816
150	0xbeb2fd83	-0.3495904
151	0x3ea6140f	0.32437178
152	0x3dfc3aa7	0.123158745
153	0xbf088c6c	-0.53339267
154	0xbe9b63a2	-0.3034945
155	0xbed96aa5	-0.42464176
156	0x3d35d917	0.044396486
157	0xbf1653e2	-0.58721745
158	0xbeabe20d	-0.335709
159	0x3f092996	0.5357908
160	0xbe6e277f	-0.23257254
161	0x3edf4ab9	0.43611696
162	0x3e8911a4	0.2677127
163	0x3f090323	0.5352041
164	0xbdadfd7b	-0.08495613
165	0x3e2197a0	0.15780497
166	0xbe34aefd	-0.17644878
167	0xbc230fd6	-0.009952506
168	0x3ea5cd7c	0.32383335
169	0xbd793d33	-0.06084938
170	0xbed1030c	-0.40822637
171	0x3d066215	0.032808382
172	0xbec9dd28	-0.3942654
173	0x3f0f63ad	0.5601147
174	0x3f100a1c	0.56265426
175	0xbd0d9c6b	-0.034573
176	0xbec7e1e3	-0.39039525
177	0xbf182767	-0.59435123
178	0xbeb266d8	-0.3484409
179	0x3e084459	0.13307323
180	0xbf1f8970	-0.6231909
181	0xbf1ca2d4	-0.61185956
182	0x3f0c4ac3	0.5480158
183	0x3ef657ab	0.4811376
184	0xbe834cec	-0.25644624
185	0x3f0312e3	0.51200694
186	0xbe838bf9	-0.25692728
187	0x3ef3ab07	0.4759142
188	0x3f0a2370	0.53960323
189	0xbda6740e	-0.081276044
190	0xbf09874b	-0.53722066
191	0xbb21b88c	-0.002467665
192	0xbef05305	-0.4693834
193	0xbf1d1df7	-0.6137385
194	0xbe79653c	-0.24355024
195	0xbc7c9029	-0.01541523
196	0x3f00d759	0.50328594
197	0x3e700bfa	0.23442069
198	0x3eee5287	0.46547338
199	0x3f05d739	0.5228153
200	0xbefafef4	-0.4902264
201	0x3d8ad7c5	0.06779436
202	0xbed3161e	-0.41227812
203	0x3e51dcff	0.2049446
204	0x3f17f812	0.593629
205	0x3eef15e7	0.46696398
206	0x3db15d89	0.086604185
207	0xbf01eb2b	-0.5074946
208	0x3e6fff69	0.23437275
209	0x3eabf972	0.3358875
210	0x3ed4a290	0.41530275
211	0x3ebd86dd	0.37016955
212	0xbeff9d59	-0.49924734
213	0x3f1e805a	0.619146
214	0x3ee79a52	0.45234925
215	0xbe2f454b	-0.17116277
216	0x3ee156c7	0.44011518
217	0xbe94c6ca	-0.29057914
218	0x3e949794	0.29021895
219	0x3d48570b	0.048911136
220	0x3de50831	0.11183203
221	0xbefdcd3b	-0.4957064
222	0x3debddbb	0.11516901
223	0xba95af90	-0.001142012
224	0x3f059da7	0.52193683
225	0xbeacb4cb	-0.33731684
226	0x3e86839e	0.2627229
227	0xbeca69e6	-0.3953392
228	0x3f1a7b15	0.6034406
229	0xbe5e75c8	-0.21724617
230	0x3d0b526e	0.034014158
231	0xbc45b489	-0.012066969
232	0x3e963531	0.29337457
233	0x3eeffb1b	0.46871266
234	0x3e2cdbf5	0.16880782
235	0x3f174014	0.5908215
236	0x3eceb2c9	0.40370777
237	0xbeff6a6e	-0.49885887
238	0x3e2a9fef	0.16662572
239	0x3e14a65f	0.1451659
240	0xbeb3abf5	-0.3509213
241	0xbef71c7b	-0.48263916
242	0xbf084e22	-0.5324422
243	0x3ee227af	0.441709
244	0xbe3a5d1a	-0.18199578
245	0xbe105b27	-0.14097272
246	0x3e185ed7	0.14879929
247	0xbeb6720c	-0.35633886
248	0xbecfe374	-0.4060322
249	0xbddfc785	-0.10926727
250	0x3e2177cf	0.1576836
251	0xbf1f9e99	-0.62351376
252	0xbeedca0d	-0.46443215
253	0xbe24decc	-0.16100615
254	0x3e7262a4	0.23670441
255	0xbed4ac15	-0.41537538

module_list.1.subnet.0.bias f4 [128]
0	0x3e93f39c	0.28896797
1	0xbcd0ad08	-0.025473133
2	0x3ef98fca	0.48742515
3	0x3eda1746	0.4259588
4	0x3ef72ffe	0.48278803
5	0x3ee2ad4f	0.4427285
6	0x3dc55ca3	0.0963681
7	0xbf02edb3	-0.5114395
8	0xbeb2b20f	-0.34901473
9	0xbe1fc630	-0.15602946
10	0xbe928c66	-0.2862274
11	0xbe86191e	-0.26191038
12	0xbec82f40	-0.3909855
13	0xbe018e9f	-0.12652062
14	0xbef70eca	-0.4825347
15	0xbf03015b	-0.51173943
16	0xbdfecba9	-0.12441189
17	0xbb8f6220	-0.004375711
18	0x3ca4429e	0.020051297
19	0x3daf522f	0.08560597
20	0xbdc5d9ca	-0.096606806
21	0xbeba6e78	-0.36412406
22	0xbe160318	-0.14649618
23	0x3eb420a1	0.35181144
24	0x3e7ff039	0.24993981
25	0x3cbabf8b	0.022796413
26	0xbe803b35	-0.2504517
27	0x3dbb7b22	0.09154345
28	0x3e80ce1c	0.2515725
29	0x3e693c0f	0.22776817
30	0x3e9c74f6	0.30557984
31	0x3e9a816e	0.30176872
32	0x3ec21df8	0.3791349
33	0x3ee025ed	0.43778935
34	0xbe460b97	-0.19340359
35	0xbea38fcb	-0.31945643
36	0x3ee88d38	0.4542024
37	0xbe40c52b	-0.18825214
38	0x3f1adeae	0.6049603
39	0x3f0ca0e0	0.54932976
40	0xbed0ef98	-0.40807796
41	0x3ee9beb6	0.45653313
42	0xbede730d	-0.43447152
43	0xbe9a4c8c	-0.30136526
44	0xbea71a37	-0.32637188
45	0x3e18e917	0.14932667
46	0xbeb12405	-0.34597793
47	0xbdc13384	-0.09433654
48	0x3ef9157b	0.486492
49	0x3e4c8aeb	0.19974868
50	0xbd9add7e	-0.075617775
51	0x3e2a5552	0.1663411
52	0x3e276f0e	0.16350958
53	0xbe5146b1	-0.20437123
54	0x3f0496e9	0.5179277
55	0x3ede2e75	0.4339482
56	0xbdc46ee6	-0.09591465
57	0xbf02cf00	-0.51097107
58	0xbebbbdbb	-0.3666819
59	0x3e62a9a8	0.22135031
60	0x3dd2b51a	0.10288449
61	0x3e2a018a	0.1660215
62	0xbde2fe1f	-0.11083626
63	0x3d410bdd	0.047130454
64	0x3f192ce9	0.5983415
65	0xbeb8dc1e	-0.36105436
66	0xbdab4393	-0.08362498
67	0x3e9b32b2	0.30312115
68	0x3eda3ebc	0.42625988
69	0x3e8fc59d	0.28080454
70	0xbddb3e9a	-0.107053
71	0x3e5d18ee	0.21591541
72	0x3ebc36c8	0.36760545
73	0x3e19b231	0.15009381
74	0xbe434eaf	-0.19072984
75	0x3e8b0e39	0.2715929
76	0xbe436047	-0.19079696
77	0x3f0a8643	0.5411112
78	0x3cabf5f7	0.020991309
79	0xbec1d7d7	-0.37859985
80	0xbea3d5c7	-0.31999037
81	0xbe97f92d	-0.29682294
82	0xbe22253a	-0.15834513
83	0xbed3c5fa	-0.41361982
84	0x3e3f8872	0.18704394
85	0xbe7ac009	-0.24487318
86	0xbebfed43	-0.37485704
87	0x3d18f3bd	0.037341822
88	0xbf0f38b7	-0.55945915
89	0x3eac19b1	0.3361335
90	0xbea4097b	-0.32038483
91	0xbe58eaae	-0.21183273
92	0xbe8e1ad4	-0.27754843
93	0xbdac3ec7	-0.08410411
94	0x3ea0c83e	0.31402773
95	0xbe56c61a	-0.20974007
96	0xbcb681cd	-0.02227869
97	0x3eb36b83	0.35042962
98	0xbeac4679	-0.33647516
99	0xbee657f9	-0.44988993
100	0xbe1b84d3	-0.15187387
101	0xbd8ff0db	-0.070283614
102	0xbe35edc5	-0.17766483
103	0xbe2ebe70	-0.17064834
104	0x3d5efdd4	0.054441288
105	0xbef63395	-0.4808623
106	0x3f0f1f07	0.5590672
107	0x3d1ad1fb	0.03779791
108	0x3c2f2215	0.010689278
109	0x3e06a56b	0.1314904
110	0xbe92b283	-0.2865182
111	0x3e593409	0.21211256
112	0x3e9e175e	0.30877203
113	0xbf224506	-0.6338657
114	0x3dc0b407	0.094093375
115	0x3e0c73e3	0.13716082
116	0x3e9a3b4c	0.30123365
117	0x3e6f6387	0.2337781
118	0x3e95f860	0.29291058
119	0xbf087ba1	-0.5331364
120	0xbef8be27	-0.48582575
121	0x3d6f2499	0.05838451
122	0xbefbb0d8	-0.4915836
123	0xbefaf108	-0.49012017
124	0xbf1b86e6	-0.60752714
125	0x3d80af1c	0.062833995
126	0x3f1911c5	0.5979274
127	0xbe719c24	-0.23594719

module_list.1.subnet.2.weight f4 [128, 128]
0	0x3dfc0bb9	0.123069234
1	0xbda0337e	-0.07822321
2	0x3dbd8a58	0.092549026
3	0xbbe3740b	-0.0069413236
4	0xbd65bda5	-0.056089062
5	0x3d5899dc	0.052881107
6	0x3dd98087	0.10620218
7	0x3d9e54f7	0.077310495
8	0xbdb6e97e	-0.08931254
9	0x3e0deae9	0.13859142
10	0xbd16d9b9	-0.03682873
11	0x3e5b1a38	0.2139672
12	0x3d9d55ca	0.076823786
13	0x3d2c47e5	0.04206075
14	0x3da616d3	0.08109822
15	0xbd94d889	-0.07267863
16	0x3c6d7c4e	0.014494969
17	0x3c1d4e3e	0.009601174
18	0x3e84b5ca	0.25919944
19	0x3e268f25	0.16265543
20	0x3dd945db	0.10609027
21	0x3dfae4cf	0.12250673
22	0xbc4081b3	-0.011749673
23	0x3d503e1e	0.05084049
24	0xbd72aefd	-0.059248913
25	0x3d8d2110	0.06891072
26	0xbd48845b	-0.04895435
27	0xbd9efaef	-0.077627055
28	0x3df7ba21	0.12096048
29	0x3db8e9d5	0.09028975
30	0xbdd93311	-0.10605443
31	0x3d2f727a	0.042833783
32	0x3d231d28	0.039822727
33	0xbe57e220	-0.21082354
34	0xbddcecbb	-0.1078734
35	0x3d330983	0.043710243
36	0x3d174b76	0.0369372
37	0xbca07708	-0.019588009
38	0xbd78afdf	-0.0607146
39	0x3c11f2ac	0.008907955
40	0x3b5d8f4c	0.0033807335
41	0xbd46fc80	-0.048580647
42	0x3da3ae32	0.079922095
43	0xbd89e3d1	-0.06732906
44	0x3e03e5f9	0.12880696
45	0x3b86bd07	0.0041118893
46	0xbbd05d17	-0.0063587534
47	0x3cceb29a	0.025231648
48	0x3cb8efe9	0.022575336
49	0x3d582365	0.05276813
50	0x3d991bfe	0.07476042
51	0xbe17f3a0	-0.1483903
52	0xbd796ef4	-0.06089683
53	0x3ca5814b	0.020203253
54	0x3d0da4a2	0.034580834
55	0xbcd83e3e	-0.026396867
56	0x3d1a456f	0.037663873
57	0xbd3363af	-0.043796238
58	0xba7773e7	-0.0009439573
59	0x3d02d023	0.031936776
60	0x3c4aa11f	0.012367516
61	0x3d0348fe	0.032052033
62	0x3c829fb3	0.015945291
63	0xbdd2388b	-0.10264691
64	0xbdb7757a	-0.08957954
65	0x3dac6e9c	0.084195346
66	0x3dd818cd	0.105516054
67	0x3d651e79	0.055937264
68	0x3e399bee	0.18125889
69	0xbbad87bb	-0.0052957213
70	0x3ddb965f	0.107220404
71	0x3e1670a3	0.14691405
72	0x3dacb9eb	0.084338985
73	0x3d289c65	0.041164774
74	0xbb64cb20	-0.003491111
75	0xbc8d32e1	-0.017236175
76	0x3d1c4ff1	0.038162176
77	0xbcc1ca06	-0.023655903
78	0x3dada29f	0.08478283
79	0xbd594e6f	-0.053053316
80	0xbdb7b267	-0.089695744
81	0x3c3941eb	0.01130722
82	0xbd17356e	-0.03691619
83	0x3d2324c5	0.039829988
84	0xbd651f9f	-0.05593836
85	0xbd83b913	-0.064317845
86	0x3cfcd99e	0.030865487
87	0xbb99875c	-0.0046853255
88	0xbd94cf39	-0.07266087
89	0x3d02d575	0.03194185
90	0x3c3a1040	0.011356413
91	0xbc8e504a	-0.01737227
92	0x3d6491e7	0.055803206
93	0xbbf1c9a8	-0.0073787756
94	0xbc8407cf	-0.016117005
95	0xbc992d29	-0.018698292
96	0x3d8ac73f	0.067762844
97	0x3e0242ac	0.12720746
98	0x3b17a377	0.0023138204
99	0x3b2ef06c	0.0026693596
100	0x3d51e11a	0.051240064
101	0x3bef75d9	0.0073077497
102	0xbd1fdac0	-0.039026976
103	0xbaa2bc03	-0.0012415651
104	0xbc17d433	-0.009266901
105	0x3df7a48e	0.12091933
106	0x3bd33e98	0.0064466707
107	0xbd20add2	-0.039228268
108	0x3d0fcc6a	0.035107054
109	0x3e002791	0.12515093
110	0x3d114def	0.035474714
111	0x3d399807	0.045311
112	0xbd2b384c	-0.041801736
113	0x3d04b4d6	0.03239902
114	0x3da6c76c	0.081435055
115	0x3cbba704	0.022906788
116	0x3e125656	0.14290747
117	0x3d7ff412	0.062488623
118	0x3d954e4c	0.072903246
119	0xbd9cd835	-0.07658426
120	0xbdad7bf1	-0.084709056
121	0x3d9aa3a2	0.07550742
122	0x3d712786	0.058875583
123	0x3d03dbc6	0.032192014
124	0xbc8c5193	-0.017128741
125	0x3e266964	0.16251141
126	0x3d776d54	0.060406998
127	0x3d8ebb75	0.06969348
128	0xbd3c8df0	-0.0460338
129	0xbd62bb86	-0.055354618
130	0x3c893088	0.016746774
131	0x3c98bfe8	0.018646196
132	0x3cf193a0	0.029489338
133	0xbc10d2f8	-0.008839361
134	0x3d96dc5f	0.07366251
135	0xbd8c1100	-0.0683918
136	0xbd91a610	-0.07111752
137	0xbda77a5f	-0.08177637
138	0x3b903ba0	0.004401639
139	0xbda12e6e	-0.07870184
140	0x3d2c6cae	0.042095833
141	0x3d22e50a	0.03976921
142	0xbc081fb8	-0.008308344
143	0x3d951ad7	0.0728051
144	0x3daf8c6d	0.08571706
145	0xbd04a45f	-0.03238332
146	0x3d903581	0.07041455
147	0x3da2ecf3	0.07955351
148	0xbd0c6d93	-0.034284186
149	0xbca3ab30	-0.01997909
150	0x3da07b4b	0.07836016
151	0x3d68611a	0.05673323
152	0xbd883dfb	-0.06652447
153	0xbd4c32e4	-0.04985322
154	0xbd5e94c9	-0.05434111
155	0x3dacf481	0.08445073
156	0x3b0c9900	0.00214535
157	0x3d334c1a	0.043773748
158	0xbb962f80	-0.004583299
159	0xbd4a2725	-0.049353737
160	0xbd460778	-0.048346967
161	0x3b882820	0.004155174
162	0x3db1d96d	0.08684049
163	0xbbc00430	-0.005859874
164	0xbd9bfd23	-0.07616641
165	0xbcf78e28	-0.030219153
166	0xbb080aa0	-0.0020758286
167	0xbccdd770	-0.025127143
168	0x3b5dbe20	0.0033835247
169	0x3d51d00e	0.051223807
170	0xbc46f5b0	-0.012143537
171	0xbb8c4c80	-0.0042815804
172	0xbd90dfaa	-0.070739105
173	0x3d8439d9	0.06456346
174	0x3cc25dc8	0.023726359
175	0xbd8e7a02	-0.06956865
176	0x3da3e7dd	0.08003209
177	0xbd2887a8	-0.041144997
178	0xbd7ffc0a	-0.062496223
179	0xbd0fdb48	-0.035121232
180	0x3d934f27	0.071928315
181	0x3d872ea7	0.06600695
182	0xbd9ed12c	-0.0775474
183	0xbd86dae7	-0.06584721
184	0xbd6baaba	-0.057535864
185	0xbd7ac26f	-0.061220583
186	0xbc5d6ae8	-0.013514258
187	0xbd85312e	-0.06503521
188	0x3d91bc05	0.0711594
189	0xbdb40bfe	-0.0879135
190	0xbd5d34b6	-0.054005347
191	0xbda30931	-0.079607375
192	0xbdaeb5dd	-0.085307814
193	0xbc69b568	-0.014264442
194	0xbd0e2cff	-0.03471088
195	0xbd90bf84	-0.07067779
196	0xbc1014f0	-0.008794054
197	0xbd69f12e	-0.057114772
198	0xbcc48858	-0.023990795
199	0x3cedeb54	0.029042877
200	0xbcf5c8ba	-0.03000294
201	0x3d6f5006	0.058425926
202	0xbc1f4d28	-0.009722985
203	0xbd77075a	-0.060309745
204	0x3ccbff98	0.02490215
205	0x3d4aa026	0.049469136
206	0xbd9b8588	-0.075938284
207	0xbd6746a8	-0.056463867
208	0x3c7b7098	0.015346669
209	0x3d507b6e	0.05089896
210	0xbba53ac0	-0.005042404
211	0x3d548c5e	0.051891677
212	0xbd23f78a	-0.040030994
213	0x3d1faf9a	0.038985826
214	0xbdaa8a65	-0.08327178
215	0xbcc67ae0	-0.024228513
216	0xbda04940	-0.07826471
217	0x3cac3e3c	0.02102577
218	0xbccf24d4	-0.025286116
219	0x3da026ef	0.07819926
220	0x3b95d970	0.0045730397
221	0xbc7a9f40	-0.015296757
222	0xbd8603ce	-0.065436944
223	0xbdb26dbd	-0.08712337
224	0x3be9e130	0.00713744
225	0xbaa80f40	-0.0012821928
226	0xbd98827b	-0.07446762
227	0xbdaeecda	-0.085412696
228	0xbcb29a24	-0.021802016
229	0x3d5c999e	0.05385744
230	0x3d0fe014	0.035125807
231	0x3d908111	0.070558675
232	0xbcea94c4	-0.02863539
233	0x3cd6b8bc	0.026211135
234	0xbd22dcba	-0.039761283
235	0x3c3417d0	0.0109920055
236	0xbcbd2968	-0.023091033
237	0x3d5c8e12	0.053846426
238	0x3d9d9449	0.07694299
239	0xbd8bbbc5	-0.068229236
240	0xbd034932	-0.032052226
241	0xbd2aac37	-0.041668143
242	0xbd4de95a	-0.05027137
243	0x3cbab89c	0.022793107
244	0x3d85d837	0.0653538
245	0xbd0e0cd2	-0.034680195
246	0xbd24fd99	-0.040280912
247	0x3c9a4a9c	0.018834405
248	0xbcb1b380	-0.021692038
249	0x3dacf2d7	0.084447555
250	0x3d9be38b	0.0761176
251	0x3d98b43d	0.07456253
252	0x3d254412	0.04034812
253	0xbbdcd010	-0.00673867
254	0x3c83404c	0.01602187
255	0xbccb3880	-0.024807215

module_list.1.subnet.2.bias f4 [128]
0	0xbd34a6fb	-0.044104557
1	0xbc8572d4	-0.016290106
2	0x3c4d684b	0.012537072
3	0x3dd88b0e	0.105733976
4	0x3ddd04f2	0.10791959
5	0x3b2f174f	0.0026716774
6	0x3d94469d	0.07240031
7	0x3d52d593	0.05147321
8	0x3cde9dbd	0.027174825
9	0xbc981146	-0.018562924
10	0xbba87384	-0.0051407237
11	0x3d97a079	0.074036546
12	0x3d0f7e7a	0.035032727
13	0x3d9ff715	0.07810799
14	0xbcaf93ab	-0.021432718
15	0xbd268c21	-0.04066098
16	0xbd5d2ec6	-0.053999685
17	0x3da2aee3	0.07943513
18	0xbd1e019d	-0.038575757
19	0x3d3aaa3d	0.045572508
20	0xbc7cf770	-0.015439853
21	0x3d59fa82	0.05321742
22	0x3d389c9e	0.045071237
23	0x3d887602	0.06663133
24	0x3dd37d5c	0.10326645
25	0x3c62d9f9	0.013845914
26	0x3de3d871	0.11125267
27	0xbc80b797	-0.015712542
28	0x3cbee4a8	0.023302391
29	0x3d926758	0.071486175
30	0x3d399342	0.04530645
31	0x3ded0650	0.1157347
32	0x3c6deb9d	0.014521507
33	0xbd90e327	-0.07074576
34	0x3d9b3edd	0.075803496
35	0x3d42b8e9	0.047539625
36	0xbcf0b28b	-0.02938201
37	0xbd29bcac	-0.041439697
38	0xbd240dc1	-0.04005218
39	0xbd83e18f	-0.06439506
40	0x3d36e464	0.044651404
41	0xbcfe7e6f	-0.031066148
42	0x3d35d078	0.044388264
43	0x3aaa04bc	0.0012971382
44	0x3c4a78aa	0.01235787
45	0x3d2a2391	0.041537825
46	0xbcfa2b26	-0.030538153
47	0x3dab10f6	0.083528444
48	0x3d8d95b6	0.06913321
49	0x3de78460	0.113045454
50	0x3d6d4741	0.05792928
51	0x3c7241b2	0.014786171
52	0x3dd33ae6	0.10313968
53	0x3d248e3b	0.040174704
54	0xbc522571	-0.01282631
55	0xbd675e3c	-0.056486353
56	0x3d46d26d	0.04854052
57	0x3d870c73	0.065941714
58	0x3d754098	0.059876055
59	0xbcc68320	-0.024232447
60	0x3da24b1e	0.07924484
61	0x3de67929	0.11253578
62	0x3c3f8d69	0.01169143
63	0xbd5076f3	-0.05089469
64	0xbbef4be6	-0.007302749
65	0xbcbad787	-0.02280785
66	0x3d95e6c0	0.07319403
67	0x3caa2b1a	0.020772506
68	0x3dd9d72a	0.106367424
69	0x3b52d76d	0.003217186
70	0x3b6c06c8	0.0036014784
71	0xbd7dc37d	-0.06195401
72	0xbd0d7a8a	-0.03454069
73	0xbcafd8b3	-0.021465635
74	0x3c838abd	0.016057367
75	0x3d929915	0.07158104
76	0x3d9010cd	0.070344545
77	0x3de2ce92	0.110745564
78	0x3da5259b	0.08063813
79	0x3dbde1b7	0.09271567
80	0x3daca540	0.084299564
81	0x3d8bd54f	0.06827795
82	0x3d713b6f	0.05889457
83	0x3dbc4c77	0.09194272
84	0x3e05e18d	0.13074322
85	0xbd01351a	-0.031544782
86	0xbd80d6f3	-0.06290998
87	0xbc6a918c	-0.014316928
88	0xbcc87ed1	-0.024474533
89	0x3d9b082a	0.075699165
90	0x3d62db59	0.055384967
91	0x3ccab11f	0.024742661
92	0x3ca67490	0.020319253
93	0x3d88976d	0.06669507
94	0x3d79f27a	0.06102226
95	0x3bf21586	0.0073878197
96	0x3d240437	0.040043082
97	0xbc934296	-0.017976087
98	0x3df03d76	0.11730473
99	0x3d8aebf3	0.06783285
100	0x3c27a4bd	0.010232148
101	0xbd9f4239	-0.07776303
102	0x3c6f86de	0.014619557
103	0xbd022a61	-0.031778697
104	0xbdaa7b19	-0.0832426
105	0x3df6f285	0.12057976
106	0xbcb6732f	-0.02227172
107	0x3de2954b	0.110636316
108	0x3c573271	0.013134585
109	0x3d2595f1	0.0404262
110	0xbcd82701	-0.026385786
111	0x3d92da52	0.071705475
112	0xbbcaf44c	-0.0061936732
113	0xbc9421d6	-0.01808254
114	0xbd36ca77	-0.04462668
115	0x3d29abb6	0.041423522
116	0x3d9edaa7	0.077565484
117	0x3dd16ada	0.102254584
118	0x3d04aff0	0.03239435
119	0x3da760fc	0.08172795
120	0x3c59e63a	0.013299519
121	0x3d570870	0.05249828
122	0x3ddad001	0.10684205
123	0xbc078c81	-0.008273245
124	0xbd79fe5a	-0.061033584
125	0x3d5418ed	0.051781584
126	0x3d60d56d	0.05489104
127	0x3da8f93f	0.08250665
